trained_models/models/airfoil/2024-11-18_model_Cl_ESCNN_lr1e-05_e1500_rbf170_convL4.pth (torch, 258194 bytes, 10 tensors)

conv1.weight f4 [200, 1, 5]
-0.25516063 0.44946325 0.43304947 0.36834022 0.2547389 0.022700317 -0.41498488 0.3569962
-0.3308783 0.07988266 0.06933132 0.21524517 0.40620512 0.54002404 0.024313837 0.08244341
0.45386735 0.060383964 -0.35864568 0.15400055 -0.34556842 -0.2203257 0.49138474 -0.28248367
-0.17234711 -0.14699596 -0.4353453 0.0011269386 -0.49956286 0.26494333 0.008154301 -0.17164174
-0.31395695 0.32025096 -0.009625629 0.2117973 0.4494655 -0.07407085 -0.0029838714 0.32384112
-0.23970598 -0.32464877 0.33373988 -0.31022996 -0.3306472 -0.27926284 -0.26134488 -0.09998183
0.073362954 0.21795535 -0.3145839 -0.10374779 -0.03495345 -0.28455612 0.41718832 0.27433217
0.28871933 -0.2861183 -0.20565721 -0.1349903 -0.15337734 -0.3879159 -0.10974791 0.21037735
0.094465375 0.15041254 -0.04279827 -0.07632045 0.43005422 0.09670963 0.2339691 -0.18215236
0.011775904 0.4173566 -0.45137936 -0.014379415 -0.040443916 0.026262634 0.61881727 -0.009976993
0.10926744 0.26876646 0.35701022 -0.24801712 -0.05773226 0.0074862093 0.2898396 -0.15711899
0.21658705 0.003030116 0.42823392 -0.09634272 0.16839348 0.15719014 0.38689405 0.17419052
0.4634011 -0.35640633 -0.099570446 0.28676948 0.18246521 -0.15815376 -0.31112304 -0.23582976
0.023605812 0.12960519 0.4802032 -0.26332083 0.04203444 0.17457989 0.42254335 0.006499806
-0.24493997 -0.4582574 -0.3947003 -0.044773676 -0.06581726 -0.012064982 0.33773732 -0.36031324
-0.43754885 -0.24086946 0.14123848 0.026036263 0.35872352 0.28104076 -0.15727815 0.08309855
0.4998355 -0.24045505 -0.017773714 0.47902957 -0.3788157 0.4840806 -0.24247499 0.21970285
-0.2965705 -0.40865126 0.0072673806 0.110290095 0.013484848 -0.21868801 -0.3686844 -0.080761254
-0.027039748 -0.1454977 -0.4935574 0.41085902 -0.49355468 0.34193608 -0.09587905 0.25738806
0.032554284 0.16061702 -0.32300624 -0.017760666 -0.42243677 0.06871797 -0.32171145 -0.2765926
0.18567435 -0.021616844 -0.1809416 0.49783275 -0.09544224 0.08406023 0.38438448 0.19231065
0.008387549 0.24601313 0.37640864 -0.6189634 0.14290608 -0.46408612 0.33349678 0.10199502
0.5204335 -0.39851743 0.080446206 -0.33516204 0.005087666 0.26874843 -0.2183873 0.18826018
0.3522431 -0.4388539 -0.42091447 0.29251668 -0.19024052 -0.3195821 -0.327296 0.49708363
-0.31912103 -0.0037820735 0.13804129 -0.37791017 -0.48341936 0.36195365 -0.3972368 0.06548838
0.0044267518 0.08250937 -0.037555 0.104298 0.22442381 -0.16949295 0.17619646 0.23628713
0.4027729 0.44951653 0.023649689 0.37120277 -0.37665206 0.27015382 -0.11950069 -0.30949384
-0.43757874 0.18844558 -0.16657254 0.081628665 0.25173023 0.22315642 -0.2715298 0.5182672
-0.26218545 0.42922315 -0.27791983 -0.00050739973 -0.4611789 -0.18567829 -0.2449774 0.42541337
0.11502531 -0.3448334 0.065490596 0.4420804 -0.14213192 -0.33725154 0.69342244 0.3657427
0.09415707 0.13832359 -0.22233422 0.44702655 0.06441869 -0.10262754 0.30043408 -0.25113
0.17664583 -0.18218032 0.1129555 0.41269043 0.2532647 -0.18405989 -0.45195267 -0.1838243
00000000: 6aa4 82be 0c20 e63e a9b8 dd3e 1797 bc3e
00000010: 236d 823e 04f6 b93c e678 d4be 35c8 b63e
00000020: e168 a9be 8599 a33d 94fd 8d3d 3b69 5c3e
00000030: 1efa cf3e 043f 0a3f d02d c73c 17d8 a83d
00000040: 4d61 e83e 2d55 773d 68a0 b7be 52b2 1d3e
00000050: 58ee b0be 0f9d 61be c896 fb3e b3a1 90be
00000060: c37b 30be 1c86 16be 94e5 debe c9b5 933a
00000070: b4c6 ffbe a7a6 873e 9e99 053c dac2 2fbe
00000080: f7be a0be eff7 a33e d0b4 1dbc 64e1 583e
00000090: 5820 e63e 75b2 97bd 0e8d 43bb 81ce a53e
000000a0: 7c75 75be 5d38 a6be f4df aa3e 76d6 9ebe
000000b0: 974a a9be 8afb 8ebe ffce 85be 46c3 ccbd
000000c0: 513f 963d b02f 5f3e 2411 a1be b979 d4bd
000000d0: 592b 0fbd 57b1 91be b599 d53e 4475 8c3e
000000e0: 05d3 933e 197e 92be ce97 52be e63a 0abe
000000f0: f30e 1dbe ea9c c6be 83c3 e0bd 296d 573e
00000100: 1077 c13d bf05 1a3e 3d4d 2fbd e54d 9cbd
00000110: 1130 dc3e b30f c63d 9995 6f3e 2686 3abe
00000120: b9ef 403c c4af d53e 321b e7be a397 6bbc
00000130: 85a8 25bd bc24 d73c cf6a 1e3f 8b76 23bc
00000140: 9cc7 df3d c29b 893e 0bca b63e 33f8 7dbe
00000150: aa78 6cbd e04e f53b db65 943e cde3 20be
00000160: ffc8 5d3e e994 463b 7a41 db3e 554f c5bd
00000170: 576f 2c3e 74f6 203e fa16 c63e 005f 323e
00000180: e942 ed3e e47a b6be 97eb cbbd 73d3 923e
00000190: 29d8 3a3e 0ff3 21be 854b 9fbe 5b7d 71be
000001a0: fa60 c13c 39b7 043e 32dd f53e fdd1 86be
000001b0: 4e2c 2c3d 12c5 323e 9a57 d83e 53fc d43b
000001c0: 8bd1 7abe b7a0 eabe 2816 cabe 9a64 37bd
000001d0: 33cb 86bd 34ac 45bc e8eb ac3e fa7a b8be
000001e0: 6706 e0be 7ca6 76be d2a0 103e 004a d53c
000001f0: 9caa b73e 93e4 8f3e 860d 21be 932f aa3d
00000200: 70ea ff3e d939 76be 2e9a 91bc 5d43 f53e
00000210: 22f4 c1be 6ad9 f73e 5d4b 78be c9f9 603e
00000220: 17d8 97be bd3a d1be 3523 ee3b c6df e13d
00000230: 8def 5c3c c0ef 5fbe 34c4 bcbe 2866 a5bd
00000240: 7682 ddbc 59fd 14be 8eb3 fcbe 1d5c d23e
00000250: 33b3 fcbe 3f12 af3e 3c5c c4bd 5ec8 833e
00000260: a457 053d ca78 243e 1361 a5be d17e 91bc
00000270: a249 d8be 02bc 8c3d 5db7 a4be 8c9d 8dbe
00000280: 6b21 3e3e cf15 b1bc c148 39be efe3 fe3e
00000290: 3977 c3bd c527 ac3d 0bce c43e 15ed 443e
000002a0: ee6b 093c deea 7b3e a2b8 c03e 6374 1ebf
000002b0: f955 123e b29c edbe 17c0 aa3e c4e2 d03d
000002c0: 213b 053f 7a0a ccbe fbc0 a43d 5c9a abbe
000002d0: 70b6 a63b 6599 893e eca0 5fbe 47c7 403e
000002e0: 3559 b43e 75b1 e0be 1a82 d7be bfc4 953e
000002f0: 69ce 42be 44a0 a3be 5793 a7be bf81 fe3e
00000300: d563 a3be aadc 77bb b25a 0d3e 717d c1be
00000310: be82 f7be fd51 b93e 9f62 cbbe c61e 863d
00000320: 490e 913b acfa a83d 46d3 19bd 319a d53d
00000330: 5bcf 653e 8f8f 2dbe d86c 343e 41f5 713e
00000340: 4038 ce3e 0827 e63e febc c13c 4a0e be3e
00000350: 8ad8 c0be 9a51 8a3e c7bc f4bd fa75 9ebe
00000360: 520a e0be e1f7 403e fe91 2abe ee2c a73d
00000370: c9e2 803e 1e83 643e f405 8bbe 29ad 043f
00000380: 2c3d 86be 23c3 db3e 824b 8ebe 0503 05ba
00000390: a41f ecbe 7322 3ebe 5bdb 7abe c8cf d93e
000003a0: 6492 eb3d 018e b0be ef1f 863d 5d58 e23e
000003b0: 088b 11be 3cac acbe 2284 313f a142 bb3e
000003c0: 6cd5 c03d b3a4 0d3e 95ab 63be aae0 e43e
000003d0: f2ed 833d 632e d2bd 7fd2 993e 1d94 80be
000003e0: a5e2 343e 7a8d 3abe 3755 e73d 294c d33e
000003f0: e9ab 813e 327a 3cbe 5766 e7be 703c 3cbe

conv1.bias f4 [200]
0.022279166 0.044446994 -0.25594506 -0.05113259 -0.31137106 0.22989698 0.37121028 -0.32650223
0.29727152 0.027795255 0.3552028 -0.1988288 -0.44608355 0.3399701 -0.40210888 0.16219851
0.38925666 0.155025 0.3484863 -0.38628885 0.13233364 0.30891344 0.20100346 0.23685196
-0.23667228 0.010350059 0.015564038 -0.3125083 -0.10588587 -0.017863126 -0.080560334 -0.011622749
0.41316736 -0.017762851 -0.27972293 -0.12242103 -0.41382876 -0.027119435 0.300347 -0.11502556
0.30734846 -0.07450995 -0.41769192 -0.27424538 -0.35129222 -0.34702188 -0.28878894 -0.18395677
-0.044599157 -0.007136899 0.040352717 0.3663462 0.4287609 -0.08700182 -0.24902391 -0.05474122
-0.13852803 -0.31306162 -0.2455658 0.16301243 -0.15430589 -0.2806447 -0.121303104 0.40360454
0.041297354 0.35466915 0.31402472 0.28682184 -0.3539261 -0.02016759 0.16004504 0.44943008
0.09549572 0.34893095 0.43567774 0.13882549 0.4295162 0.17401609 0.13876459 -0.015730178
0.039223056 -0.02529815 0.088627785 -0.111354835 -0.24467726 0.15028206 -0.3881348 -0.035161108
-0.24005558 -0.41837078 -0.16208446 0.32530782 0.18387274 -0.28959164 0.37091804 -0.387066
0.1402559 0.25222045 0.38712072 0.33982632 -0.24728042 -0.13059932 0.3279981 0.001764198
0.04654425 0.037843905 0.022358213 -0.18990996 -0.011725077 -0.224509 -0.36098891 0.088208206
-0.27767304 0.0448396 -0.2931961 0.350366 -0.13866986 -0.074846536 -0.43820462 0.072284594
0.47340885 -0.08416055 -0.09281953 0.24404907 0.1630062 -0.27572903 0.03317915 -0.005344527
-0.008206526 0.25196892 0.3795 0.324593 0.36433828 0.42450255 -0.31872112 0.0989383
-0.02328818 -0.1756996 0.21112914 -0.010758257 0.28245634 0.19379535 -0.07480273 0.006383163
0.16408758 0.19968466 0.4613497 0.45394897 -0.113462485 -0.25645477 -0.37194616 -0.06644947
0.3671793 -0.41682452 -0.26238105 0.14582413 0.035333198 -0.31093532 0.17137116 -0.36228785
-0.21387476 0.2524083 0.37221172 0.33334336 0.36762604 -0.40750223 -0.39342588 0.22591494
-0.37241066 -0.4308407 0.26352093 -0.2501986 0.08135941 -0.1901183 0.22263967 0.15355383
-0.1964534 0.21576323 0.0706391 0.2999504 -0.19158156 -0.34394884 0.18837613 0.45426965
-0.06806148 -0.41209424 0.18497737 -0.21582009 0.017043255 -0.0716875 0.1772692 0.08411362
-0.26230574 0.017436408 -0.023686318 0.36608642 -0.19104125 -0.24028811 0.13631466 -0.07762103
00000000: cc82 b63c 0d0e 363d 3b0b 83be 6870 51bd
00000010: 076c 9fbe 1d6a 6b3e 460f be3e 4d2b a7be
00000020: f933 983e e0b2 e33c 24dd b53e c799 4bbe
00000030: 1065 e4be 9010 ae3e 37e1 cdbe 5e17 263e
00000040: a64c c73e e0be 1e3e cc6c b23e a7c7 c5be
00000050: 7882 073e e729 9e3e dad3 4d3e 5289 723e
00000060: 385a 72be 4b93 293c 4f00 7f3c 1701 a0be
00000070: b1da d8bd b155 92bc d1fc a4bd 586d 3ebc
00000080: ac8a d33e 6683 91bc d837 8fbe e1b7 fabd
00000090: 5de1 d3be 9429 debc 15c7 993e 8592 ebbd
000000a0: c75c 9d3e ac98 98bd b7db d5be e469 8cbe
000000b0: 93dc b3be daac b1be 25dc 93be 2a5f 3cbe
000000c0: 9bad 36bd a6dc e9bb e448 253d bb91 bb3e
000000d0: 8c86 db3e 032e b2bd 2000 7fbe 5438 60bd
000000e0: 4bda 0dbe 9d49 a0be 9a75 7bbe bbec 263e
000000f0: 5d02 1ebe aab0 8fbe c36d f8bd 41a5 ce3e
00000100: 6a27 293d 3297 b53e d9c7 a03e 50da 923e
00000110: cd35 b5be 8036 a5bc d9e2 233e b31b e63e
00000120: 4393 c33d 14a7 b23e 2711 df3e 4528 0e3e
00000130: 8ce9 db3e 4631 323e 4e18 0e3e 93dc 80bc
00000140: 5ba8 203d 113e cfbc 7c82 b53d 010e e4bd
00000150: ad8c 7abe 8ae3 193e 9bb9 c6be 1805 10bd
00000160: 21d1 75be b234 d6be 78f9 25be bf8e a63e
00000170: 2349 3c3e 5b45 94be f8e8 bd3e 842d c6be
00000180: 3e9f 0f3e 0a23 813e b034 c63e b7fd ad3e
00000190: 1437 7dbe d4bb 05be 5eef a73e a93c e73a
000001a0: 2fa5 3e3d 3602 1b3d 9228 b73c c277 42be
000001b0: 8a1a 40bc b0e5 65be 8ad3 b8be 81a6 b43d
000001c0: 292b 8ebe baa9 373d cd1d 96be 2c63 b33e
000001d0: 79ff 0dbe 2449 99bd 5b5c e0be f209 943d
000001e0: a562 f23e 5e5c acbd 2a18 bebd 00e8 793e
000001f0: 19eb 263e 5b2c 8dbe dce6 073d 2421 afbb
00000200: aa74 06bc 1202 813e d34d c23e 0e31 a63e
00000210: 8c8a ba3e 6658 d93e 6a2f a3be 2aa0 ca3d
00000220: dac6 bebc 99ea 33be 3d32 583e 6643 30bc
00000230: 1e9e 903e 4a72 463e 2c32 99bd da29 d13b
00000240: 9306 283e 237a 4c3e 0736 ec3e 006c e83e
00000250: 055f e8bd 0a4e 83be ba6f bebe a916 88bd
00000260: edfe bb3e 066a d5be cf56 86be ec52 153e
00000270: 8bb9 103d ea32 9fbe ec7b 2f3e cb7d b9be
00000280: fc01 5bbe a93b 813e 8992 be3e fbab aa3e
00000290: 7b39 bc3e 22a4 d0be 1e6f c9be 3f56 673e
000002a0: 9cac bebe 2797 dcbe 37ec 863e 081a 80be
000002b0: c39f a63d 5fae 42be a7fb 633e 373d 1d3e
000002c0: 152b 49be 09f1 5c3e 3cab 903d 1993 993e
000002d0: f52d 44be 101a b0be ace5 403e 0896 e83e
000002e0: d163 8bbd 04fe d2be b56a 3d3e f1ff 5cbe
000002f0: 4c9e 8b3c e5d0 92bd 0f86 353e c343 ac3d
00000300: f04c 86be ccd6 8e3c cf09 c2bc ae6f bb3e
00000310: 51a0 43be 160e 76be 1296 0b3e c6f7 9ebd

conv2.weight f4 [200, 200, 1]
-0.06863494 0.010932305 -0.04505577 -0.003625835 -0.047674246 0.032128114 -0.037457902 -0.06781205
0.029585661 -0.061882593 0.051047932 0.032898683 0.08315715 0.018784031 0.049112573 0.027082287
0.0039390936 -0.07253643 -0.048406534 -0.0061724456 0.046925984 0.026908293 0.078416914 -0.04289017
0.017542496 -0.05488437 -0.03308182 -0.04795052 -0.05252402 0.027604437 -0.025057616 0.01495959
0.070491776 -0.05320376 -0.030111035 -0.053940106 -0.07206846 -0.056913003 -0.06028646 0.044049032
-0.006699922 -0.02195587 -0.06388435 -0.01603991 0.024115939 0.06789585 0.03678293 -0.03706061
-0.06663587 -0.04113589 -0.009064003 -0.0670942 0.021352123 0.07002526 0.02744798 -0.06710944
0.013499199 0.050127055 -0.068814255 0.011240063 0.04883949 -0.025938395 -0.05206388 -0.06614284
0.015097904 -0.0022803312 0.032895427 0.07479823 -0.05775279 0.04239156 -0.0357918 0.073586695
0.04192779 -0.0340855 0.021128112 -0.02652557 0.05136216 0.06341694 0.066065036 0.029311797
0.04124456 0.012652775 0.063471 -0.05079578 0.0026687474 0.051384803 0.06749501 0.075917445
0.011632438 0.056312963 -0.032404035 -0.046226565 -0.04938066 -0.0429237 -0.012598099 0.017380489
0.021667402 -0.03486881 0.049136955 0.014086575 -0.027526882 0.04432117 -0.023486543 0.015673222
0.065410234 0.043979336 0.004604985 0.034248527 0.031643156 0.06236305 -0.007501818 0.011320406
-0.07790397 -0.03239614 0.054963496 -0.06385323 0.030375896 -0.036805443 -0.036465142 -0.03244062
-0.038662035 0.04480189 -0.0096968645 0.0043160375 -0.06197528 -0.045854457 -0.025465822 -0.020769749
0.04974876 0.03450969 0.0306748 -0.08484308 -0.049699873 0.011384477 0.0035597093 0.088901296
-0.0040715123 -0.04459754 0.06706325 0.03117096 0.047423724 -0.06549854 0.030772118 -0.055813383
-0.059172664 0.06328939 -0.054256 0.050984815 0.009209664 -0.0068154153 -0.059135262 -0.031127153
0.0009166571 0.031180004 -0.025586508 -0.064978056 -0.04671797 -0.019635914 0.060633413 -0.0033592572
0.005560244 0.0022082604 0.06781009 0.0351334 -0.059986167 0.04875775 0.062451724 -0.09161753
0.023266185 -0.057419922 0.013582984 -0.047486916 0.0690659 -0.0586652 0.044213466 0.06904439
-0.04882433 -0.027617715 -0.047415987 -0.04715516 0.019909626 -0.079505 -0.0009335334 -0.06429716
-0.022682348 0.03791866 0.06131065 0.07045191 0.026506148 -0.03613997 0.0035558234 -0.09025904
-0.07142804 -0.06707275 0.016956268 0.05601671 -0.0027260298 0.08109183 -0.031077685 0.008590082
-0.024511652 -0.051358435 0.052038413 0.0115648 -0.027668508 -0.048250634 -0.0054046735 0.06795575
0.024392812 -0.0398263 0.051902615 0.034080047 0.035297193 -0.06267979 -0.019719502 0.062148478
-0.054947227 0.008144819 0.050527465 -0.055292513 0.015868867 -0.045930285 0.0076081795 0.027871115
-0.06479861 -0.018035643 0.05791417 0.037419133 -0.04604096 0.0059951833 -0.03653808 -0.060360562
-0.021852639 -0.030382015 0.053729303 0.07070867 0.025828855 0.016204793 0.018338265 -0.03363889
0.06892444 0.009896917 -0.019265544 -0.054021932 0.0026008391 -0.11510661 -0.042686015 -0.04690538
-0.0024115462 -0.05904245 0.020348145 0.07168361 -0.03086696 0.04966438 0.014817987 0.059209246
00000000: 7a90 8cbd 691d 333c 668c 38bd 6b9f 6dbb
00000010: 1246 43bd c598 033d 756d 19bd 0be1 8abd
00000020: a15d f23c 9a78 7dbd a317 513d c5c0 063d
00000030: 4c4e aa3d f8e0 993c 442a 493d acdb dd3c
00000040: 8313 813b fb8d 94bd ee45 46bd 3a42 cabb
00000050: 7635 403d c86e dc3c 0c99 a03d 9aad 2fbd
00000060: 48b5 8f3c 6fce 60bd cd80 07bd c467 44bd
00000070: 6d23 57bd b322 e23c a145 cdbc 1119 753c
00000080: fe5d 903d 30ec 59bd 6bab f6bc 4df0 5cbd
00000090: a198 93bd 9c1d 69bd efee 76bd c26c 343d
000000a0: 058b dbbb ccdc b3bc ccd5 82bd 2166 83bc
000000b0: ca8e c53c fb0c 8b3d b3a9 163d decc 17bd
000000c0: 6378 88bd 1b7e 28bd 2f81 14bc af68 89bd
000000d0: a6ea ae3c 6769 8f3d 96da e03c ad70 89bd
000000e0: bf2b 5d3c 0752 4d3d 7dee 8cbd 3e28 383c
000000f0: eb0b 483d c27c d4bc ef40 55bd e675 87bd
00000100: 335d 773c 9c71 15bb 5bbd 063d d02f 993d
00000110: 318e 6cbd c6a2 2d3d 6c9a 12bd 9fb4 963d
00000120: 79bc 2b3d 3d9d 0bbd dd14 ad3c 274c d9bc
00000130: 2161 523d bee0 813d 1b4d 873d 4b1f f03c
00000140: 0ef0 283d 964d 4f3c 15fd 813d 3c0f 50bd
00000150: 27e6 2e3b df78 523d d33a 8a3d 9b7a 9b3d
00000160: fb95 3e3c 6ca8 663d 18ba 04bd 1158 3dbd
00000170: 6043 4abd c3d0 2fbd 4268 4ebc 8761 8e3c
00000180: d67f b13c 99d2 0ebd d543 493d 61cb 663c
00000190: 0e80 e1bc 1d8a 353d da66 c0bc 2165 803c
000001a0: cdf5 853d ad23 343d 6ae5 963b 2f48 0c3d
000001b0: 419c 013d 6670 7f3d cfd1 f5bb 3979 393c
000001c0: 1e8c 9fbd d1b1 04bd 6721 613d 7bc5 82bd
000001d0: dfd6 f83c 4ec1 16bd 795c 15bd 75e0 04bd
000001e0: 155c 1ebd 3082 373d 99df 1ebc 8c6d 8d3b
000001f0: cbd9 7dbd e2d1 3bbd b39d d0bc 5225 aabc
00000200: 5bc5 4b3d 085a 0d3d b849 fb3c 35c2 adbd
00000210: 1892 4bbd f585 3a3c 034a 693b e211 b63d
00000220: 526a 85bb e9ab 36bd 7558 893d 3e5a ff3c
00000230: 613f 423d 1924 86bd cf15 fc3c 939c 64bd
00000240: 095f 72bd de9d 813d 8a3b 5ebd 74d5 503d
00000250: 21e4 163c d953 dfbb d137 72bd 5ffe febc
00000260: d14b 703a 356d ff3c cc9a d1bc 3713 85bd
00000270: 585b 3fbd 7fdb a0bc be5a 783d fc26 5cbb
00000280: b532 b63b 76b8 103b 04e0 8a3d 0ae8 0f3d
00000290: 0eb4 75bd 35b6 473d 61cd 7f3d f9a1 bbbd
000002a0: ba98 be3c 2731 6bbd 2a8b 5e3c a481 42bd
000002b0: 6c72 8d3d ec4a 70bd 2e19 353d 2567 8d3d
000002c0: 05fc 47bd 8c3e e2bc 4437 42bd c525 41bd
000002d0: 8319 a33c 84d3 a2bd 5eb8 74ba 3bae 83bd
000002e0: 55d0 b9bc 9950 1b3d e020 7b3d 1749 903d
000002f0: 6c23 d93c 8107 14bd d108 693b bbd9 b8bd
00000300: dd48 92bd 705d 89bd dfe7 8a3c c771 653d
00000310: 31a7 32bb 7913 a63d a196 febc 6abd 0c3c
00000320: a9cc c8bc 395d 52bd 3b26 553d 497a 3d3c
00000330: 11a9 e2bc 75a2 45bd b019 b1bb 622c 8b3d
00000340: 6fd3 c73c e720 23bd d697 543d 8597 0b3d
00000350: ca93 103d 435e 80bd cb8a a1bc 678f 7e3d
00000360: 5810 61bd d971 053c e3f5 4e3d 677a 62bd
00000370: 6dff 813c 6521 3cbd 094e f93b f751 e43c
00000380: 22b5 84bd 7cbf 93bc 6937 6d3d ce44 193d
00000390: 7295 3cbd 3e73 c43b f4a8 15bd a33c 77bd
000003a0: 4e04 b3bc b4e3 f8bc 4213 5c3d b5cf 903d
000003b0: 0997 d33c eabf 843c 213a 963c efc8 09bd
000003c0: 4228 8d3d ae26 223c c6d2 9dbc 1a46 5dbd
000003d0: d772 2a3b 04bd ebbd 88d7 2ebd db1f 40bd
000003e0: 080b 1ebb 7fd6 71bd 27b1 a63c dbce 923d
000003f0: b5dc fcbc e06c 4b3d 24c7 723c 6585 723d

conv2.bias f4 [200]
0.012245776 -0.04692564 -0.008808515 -0.038163792 0.035867985 0.028758597 0.02702231 0.037541572
-0.018690478 0.051450968 0.039890815 0.052544102 -0.046541877 -0.04329504 -0.05587407 -0.051605944
0.012879338 0.02515214 -0.035116713 -0.027401937 0.045005817 0.0007738367 -0.009886548 0.066448994
-0.022932757 -0.057460412 0.00095389085 0.06212626 -0.044930574 -0.04447494 -0.014418442 0.034573343
-0.02211553 -0.033949412 -0.020639783 0.039746605 0.029642692 0.06775592 -0.0055703353 0.066487916
-0.011154617 -0.00013375057 -0.041567143 0.065352 0.054423794 -0.057164647 -0.03335703 -0.084021635
0.05560975 -0.033391833 0.039484054 -0.013064642 0.08623004 -0.030850112 -0.033362895 -0.025212431
-0.005719399 0.01872701 0.013602005 0.041013796 -0.018168507 0.05445443 0.05176255 0.014426914
0.011578838 -0.025103785 -0.060356356 0.055699866 0.026843611 0.12136208 0.0015753728 0.027242497
-0.005421582 -0.0049146493 -0.07106761 0.042935517 0.03827322 0.03199221 0.028483216 -0.0391036
0.05285376 0.035233542 -0.03152277 0.032321226 0.01685433 0.040411733 -0.034975287 -0.07223592
-0.06393414 -0.035264403 0.058050185 -0.031741988 -0.027808899 -0.009260281 -0.044485904 0.038919684
-0.017466092 0.029250063 -0.031935148 -0.0658234 0.023352351 -0.053712472 0.037044268 -0.066294745
0.0061301943 0.0073772958 0.006076336 -0.07125723 -0.005220409 -0.045187376 0.025849927 0.030068202
-0.057500392 -0.07128365 -0.0015849464 0.03762461 0.05871136 0.082111456 -0.020282922 0.03546654
0.075323775 0.03176925 -0.029779349 0.06534253 0.046869308 -0.022844369 0.06961382 -0.04647795
0.07630613 -0.04078518 -0.050188337 -0.044071656 0.021142153 -0.03828699 -0.025593754 0.000106489526
0.067978814 0.019955778 0.043713413 -0.0119330315 -0.03589771 0.06736866 0.026506348 -0.047941994
-0.010201286 -0.06755282 0.10579255 0.009942396 0.0017307261 0.052111395 0.03042748 0.10952712
0.008524707 -0.011164213 0.039808717 0.034018002 0.008056535 -0.046078265 -0.053507 -0.0027889987
-0.029998975 0.032776937 0.061526332 -0.051902115 0.04982638 0.024119975 0.014684161 0.05588895
0.022350047 0.05857577 0.0076564644 0.074838474 -0.0008448071 -0.033250745 0.010917946 -0.06120737
0.02073118 0.0049642175 0.010661663 -0.001533272 -0.0061857128 -0.0575171 0.078918986 0.09032341
0.034417734 -0.026768588 -0.05818799 0.0022980734 -0.05370805 0.07641944 0.026434721 0.051725507
0.052643843 0.03306067 0.06749951 0.00048640516 0.06355115 0.03496954 0.052077804 -0.06354635
00000000: 82a2 483c 1a35 40bd 9751 10bc a351 1cbd
00000010: 4fea 123d 2697 eb3c e45d dd3c 31c5 193d
00000020: c61c 99bc 40be 523d 8d64 233d 7c38 573d
00000030: b2a2 3ebd 2456 31bd 35dc 64bd c160 53bd
00000040: dc03 533c dc0b ce3c 8bd6 0fbd 077a e0bc
00000050: 0558 383d 4ddb 4a3a 30fb 21bc 6916 883d
00000060: 7add bbbc 9c5b 6bbd 880e 7a3a 1b78 7e3d
00000070: 1f09 38bd 5b2b 36bd 543b 6cbc c79c 0d3d
00000080: a12b b5bc 8a0e 0bbd c314 a9bc 56cd 223d
00000090: 3bd5 f23c 9ec3 8a3d 5c87 b6bb d12a 883d
000000a0: dbc1 36bc 653f 0cb9 4f42 2abd 45d7 853d
000000b0: 7ceb 5e3d 7a25 6abd 62a1 08bd 8913 acbd
000000c0: 0dc7 633d e0c5 08bd 08ba 213d 150d 56bc
000000d0: 6099 b03d 60b9 fcbc 88a7 08bd 4d8a cebc
000000e0: cc69 bbbb 6369 993c f2da 5e3c 15fe 273d
000000f0: 1fd6 94bc 9c0b 5f3d f804 543d dd5e 6c3c
00000100: 2bb5 3d3c 74a6 cdbc 3a38 77bd 8b25 643d
00000110: 22e7 db3c af8c f83d bd7c ce3a a82b df3c
00000120: 87a7 b1bb 110b a1bb e58b 91bd 27dd 2f3d
00000130: 61c4 1c3d 430a 033d a255 e93c 192b 20bd
00000140: 2f7d 583d 0c51 103d 051e 01bd 4363 043d
00000150: 1812 8a3c c686 253d 3f42 0fbd 6df0 93bd
00000160: e7ef 82bd 6871 10bd 08c6 6d3d e303 02bd
00000170: 7dcf e3bc 6fb8 17bc da36 36bd 3f6a 1f3d
00000180: 0d15 8fbc d49d ef3c 6ece 02bd 6bce 86bd
00000190: 6e4d bf3c 9c01 5cbd bbbb 173d 8ac5 87bd
000001a0: ccdf c83b 3ebd f13b 001c c73b 50ef 91bd
000001b0: f70f abbb 6616 39bd 3ac3 d33c 9751 f63c
000001c0: 8885 6bbd 2afd 91bd fabd cfba 431c 1a3d
000001d0: 537b 703d 0d2a a83d 5f28 a6bc 5d45 113d
000001e0: 5a43 9a3d 7920 023d d2f3 f3bc 4ed2 853d
000001f0: 08fa 3f3d 1d24 bbbc b191 8e3d aa5f 3ebd
00000200: 6346 9c3d 5c0e 27bd 4992 4dbd 7b84 34bd
00000210: 4f32 ad3c d2d2 1cbd fea9 d1bc 2153 df38
00000220: 7a38 8b3d 4d7a a33c d60c 333d c382 43bc
00000230: 7a09 13bd 94f8 893d d723 d93c d35e 44bd
00000240: 4b23 27bc 2259 8abd c4a9 d83d 6ee5 223c
00000250: 88d9 e23a c272 553d 0d43 f93c c14f e03d
00000260: 36ab 0b3c 1aea 36bc 770e 233d 7656 0b3d
00000270: 8fff 033c 90bc 3cbd 282a 5bbd a2c7 36bb
00000280: 69c0 f5bc 1c41 063d 0903 7c3d 5097 54bd
00000290: bf16 4c3d 4197 c53c d695 703c d0eb 643d
000002a0: 7217 b73c 26ed 6f3d 14e3 fa3b ea44 993d
000002b0: 0b76 5dba ef31 08bd 2fe1 323c 94b4 7abd
000002c0: 70d4 a93c e0aa a23b 41ae 2e3c 12f8 c8ba
000002d0: 85b1 cabb 0d97 6bbd 47a0 a13d 7bfb b83d
000002e0: 9cf9 0c3d cc49 dbbc 8856 6ebd 469b 163b
000002f0: f9fc 5bbd cc81 9c3d a18d d83c 20de 533d
00000300: 12a1 573d a06a 073d 2f3d 8a3d 3204 ff39
00000310: 1b27 823d 383c 0f3d 894f 553d 9724 82bd

conv3.weight f4 [100, 200, 1]
-0.037586965 0.20587625 -0.04722664 0.09204628 0.074650496 0.07836589 -0.021861669 -0.022576865
0.104668505 -0.0013762534 -0.004734962 -0.05142174 0.023561293 -0.044859145 0.043282934 0.07351748
0.0078521 -0.025139933 0.06605237 0.024653535 0.022776606 -0.021659253 0.03478408 -0.0034769003
0.04938872 0.06614718 0.025853103 0.022473391 0.055073485 -0.058499258 0.033559013 0.016905842
0.054046903 -0.06463017 0.083818965 -0.034354348 0.036211062 0.0008693055 -0.07165752 -0.09135032
0.07067392 0.017635468 -0.005272928 0.05062017 0.055442426 0.054630235 0.07640774 -0.06112441
-0.024875138 -0.042515177 0.060615953 -0.002013319 0.025221834 -0.027606122 0.05686792 -0.06912848
-0.037206616 -0.079886384 -0.03118263 0.03779786 0.063999504 -0.09122903 -0.017889148 -0.033593472
0.059714 -0.023522148 0.0397768 0.04190874 -0.003655426 -0.034601606 -0.022377213 0.011615018
0.0417767 0.06538951 0.05323725 -0.029213011 -0.04130415 0.049764436 0.077334784 -0.031382836
-0.04114201 0.021880735 0.048388913 0.0012161717 -0.009997876 0.07282898 -0.006397698 -0.041191813
0.021173894 -0.021457812 0.075235285 -0.067312576 0.065509535 0.007165835 0.013574137 0.030738765
0.059990313 -0.017564865 -0.039288715 0.020005966 0.022675468 0.021208053 0.031503413 0.0010833748
0.06365386 -0.03813734 0.079977736 -0.052564483 0.07727525 -0.042346615 -0.02876299 -0.21454427
-0.0065422156 0.08603294 0.007275216 -0.036776938 0.043754622 -0.05959349 -0.05969101 -0.094471686
-0.055831976 -0.05153413 -0.07690205 -0.06891085 -0.0014543452 0.064066365 0.010737359 0.024301684
0.049236007 0.029411733 -0.14779212 -0.024396293 0.021672694 -0.015763925 0.07266733 -0.14032853
-0.053140294 -0.061182547 0.0038713901 0.01850961 -0.04152568 0.064996704 -0.016312677 -0.033006635
0.05960596 0.025118167 -0.0016245592 -0.0070378883 -0.047639553 0.06735479 -0.100265145 -0.02370428
-0.022682643 -0.053469624 -0.032327097 -0.014025818 -0.107587434 0.006136278 0.020144327 -0.05712018
-0.08993953 -0.023745617 -0.058725048 -0.059726577 0.0032147206 0.06092319 -0.04929233 0.042466722
-0.016349554 -0.22240347 -0.020582639 -0.07580433 0.021974366 -0.05509106 -0.008430852 -0.050201975
-0.013103309 0.017745381 -0.018734524 -0.026346467 0.020434987 0.026595954 0.03174591 -0.025420474
-0.02634037 -0.0035504326 -0.05990894 -0.053393394 -0.06349785 -0.033624206 0.0011341444 -0.023448946
-0.076462224 0.007088722 0.00492283 -0.014600342 0.051191073 -0.038295466 0.040195618 -0.011836707
0.032500003 -0.083972804 -0.0009815749 -0.046084926 0.008951406 0.033911295 0.04569362 0.047137044
0.23239543 0.04490502 0.02138764 0.022433579 0.06741962 0.034641534 -0.029950492 0.29356238
0.061743677 0.0959951 -0.03808945 0.20494577 0.075422876 0.05581734 -0.030908372 0.040839978
-0.07472921 -0.03165718 -0.044574186 0.07413971 0.063218154 0.071822934 -0.06595845 0.11375777
0.06646731 -0.06897189 0.09861045 -0.016285965 0.0046675955 0.06913496 0.013374428 0.01529201
0.03588143 -0.02801236 0.008405421 -0.043791015 0.09905341 0.05342535 -0.020068537 0.008441808
0.037992496 0.10467039 -0.0018304967 0.04170136 -0.018927576 -0.0516661 -0.059852637 -0.021394912
00000000: caf4 19bd 39d1 523e b970 41bd c382 bc3d
00000010: 5ce2 983d 4c7e a03d 3e17 b3bc 1ef3 b8bc
00000020: 715c d63d 6763 b4ba bd27 9bbb 9a9f 52bd
00000030: 9d03 c13c 39be 37bd 7249 313d 5590 963d
00000040: 18a6 003c 43f2 cdbc 7746 873d 36f6 c93c
00000050: 0196 ba3c bf6e b1bc c079 0e3d b5dc 63bb
00000060: d44b 4a3d 2c78 873d e3c9 d33c 1e1a b83c
00000070: bc94 613d eb9c 6fbd 2d75 093d 1f7e 8a3c
00000080: 4960 5d3d d35c 84bd 47a9 ab3d 25b7 0cbd
00000090: 0d52 143d 1be2 633a 2ec1 92bd e015 bbbd
000000a0: 7dbd 903d 4278 903c 87c8 acbb 1857 4f3d
000000b0: 9917 633d f4c3 5f3d a97b 9c3d 975d 7abd
000000c0: f2c6 cbbc 6524 2ebd 6f48 783d e3f1 03bb
000000d0: 059e ce3c 3c26 e2bc 56ee 683d 3c93 8dbd
000000e0: f765 18bd 799b a3bd b772 ffbc eed1 1a3d
000000f0: 2c12 833d 49d6 babd 438c 92bc 4f99 09bd
00000100: ab96 743d 85b1 c0bc ffec 223d 80a8 2b3d
00000110: df8f 6fbb 6aba 0dbd 6b50 b7bc eb4c 3e3c
00000120: 0c1e 2b3d efea 853d 4d0f 5a3d 2050 efbc
00000130: 8a2e 29bd cbd5 4b3d b361 9e3d 4a8b 00bd
00000140: 8684 28bd 3a3f b33c 7433 463d f367 9f3a
00000150: 22ce 23bc 5c27 953d c8a3 d1bb bfb8 28bd
00000160: e074 ad3c 4bc8 afbc f514 9a3d 2ddb 89bd
00000170: dd29 863d 61cf ea3b 0f66 5e3c ddcf fb3c
00000180: 67b8 753d 31e4 8fbc 34ed 20bd 8de3 a33c
00000190: e7c1 b93c 83bc ad3c b909 013d 0700 8e3a
000001a0: f45c 823d e635 1cbd 5ecb a33d db4d 57bd
000001b0: 7c42 9e3d a573 2dbd 5da0 ebbc 7eb1 5bbe
000001c0: 1560 d6bb 0a32 b03d ef64 ee3b 6aa3 16bd
000001d0: 0c38 333d 4e18 74bd 8f7e 74bd 5f7a c1bd
000001e0: 12b0 64bd 7415 53bd d27e 9dbd 2221 8dbd
000001f0: ba9f beba 3a35 833d bfeb 2f3c 5314 c73c
00000200: b2ab 493d e0f0 f03c d156 17be bcda c7bc
00000210: ef8a b13c 5923 81bc 9cd2 943d 48b2 0fbe
00000220: a3a9 59bd 8d9a 7abd 26b7 7d3b 77a1 973c
00000230: d516 2abd fe1c 853d 2aa2 85bc f731 07bd
00000240: 6125 743d 9dc4 cd3c 29ef d4ba 169e e6bb
00000250: b121 43bd 4ff1 893d d057 cdbd 7a2f c2bc
00000260: f3d0 b9bc f702 5bbd 6b69 04bd 8bcc 65bc
00000270: cd56 dcbd d512 c93b b705 a53c daf6 69bd
00000280: 3732 b8bd 2b86 c2bc ad89 70bd dba3 74bd
00000290: 10ae 523b 988a 793d c1e6 49bd 96f1 2d3d
000002a0: 80ef 85bc bcbd 63be ec9c a8bc 4d3f 9bbd
000002b0: 9603 b43c 2aa7 61bd 8e21 0abc 96a0 4dbd
000002c0: 43af 56bc c35e 913c 2579 99bc 8cd4 d7bc
000002d0: 4667 a73c c2df d93c 0008 023d 993e d0bc
000002e0: c2c7 d7bc 60ae 68bb 1463 75bd 08b3 5abd
000002f0: 290b 82bd 89b9 09bd 92a7 943a 0118 c0bc
00000300: 3a98 9cbd 8348 e83b b14f a13b 4636 6fbc
00000310: bbad 513d b5db 1cbd 29a4 243d bfee 41bc
00000320: b91e 053d eff9 abbd 30a8 80ba 8cc3 3cbd
00000330: eba8 123c 92e6 0a3d 3c29 3b3d c612 413d
00000340: 11f9 6d3e 54ee 373d 2235 af3c a0c6 b73c
00000350: 4c13 8a3d 48e4 0d3d bc5a f5bc cf4d 963e
00000360: f0e6 7c3d 1499 c43d af03 1cbd 4edd 513e
00000370: 4f77 9a3d b9a0 643d 8e33 fdbc d247 273d
00000380: a10b 99bd f6aa 01bd 6c93 36bd 8fd6 973d
00000390: 8578 813d e717 933d 3915 87bd d5f9 e83d
000003a0: 0320 883d 2241 8dbd 47f4 c93d 256a 85bc
000003b0: a1f2 983b a196 8d3d 6b20 5b3c 578b 7a3c
000003c0: 68f8 123d 2d7a e5bc e4b6 093c 355e 33bd
000003d0: 84dc ca3d 8ad4 5a3d c666 a4bc 824f 0a3c
000003e0: 059e 1b3d 6e5d d63d 47ed efba 0ccf 2a3d
000003f0: 010e 9bbc d59f 53bd 0a28 75bd 6244 afbc

conv3.bias f4 [100]
-0.06320625 0.033582244 0.0027561577 -0.043165598 -0.04238416 0.05086535 -0.036016233 0.020409046
0.074687466 0.009939829 -0.011702456 -0.004601638 -0.031636007 -0.033501692 -0.0035191476 0.07929215
0.022625498 0.025925834 -0.0062906025 0.0281309 0.03780901 0.031145101 0.021727914 -0.0660555
-0.051742524 0.012695695 -0.025605435 0.062358644 0.030459607 0.067046605 0.03966722 -0.060582593
-0.06340453 0.037926387 0.002943736 0.005653604 -0.049118537 -0.04956875 -0.024062714 0.021654623
-0.022671763 -0.029648064 -0.015106428 0.046807725 0.02054104 0.05806818 0.015504618 -0.055935767
0.028317152 -0.02186113 -0.0001478396 -0.03354191 -0.045105506 0.053747497 -0.0074149813 0.061878376
-0.074153624 -0.046140652 -0.01574867 0.08164193 0.00021391085 -0.049854048 -0.01977013 0.08214529
-0.06311183 0.029095951 0.04092625 0.07886311 0.06636398 -0.022678249 0.01820062 0.02666544
0.067040615 -0.04284526 0.05611375 -0.04202939 0.032199994 -0.066451356 0.027691832 0.042061247
0.061313335 0.06453656 0.055270515 -0.031140726 0.05842851 -0.0481843 -0.003594288 -0.034654137
-0.012175918 0.009697644 -0.0014154203 0.0027781255 0.10096259 0.052830014 0.021198262 0.04210083
0.064844765 0.0735895 -0.047570936 0.024523722
00000000: 4772 81bd 898d 093d a7a0 343b 69ce 30bd
00000010: 039b 2dbd 2f58 503d c285 13bd df30 a73c
00000020: bef5 983d aada 223c a8bb 3fbc 56c9 96bb
00000030: c294 01bd 1239 09bd 80a1 66bb ec63 a23d
00000040: 1c59 b93c 6a62 d43c 6621 cebb c672 e63c
00000050: 9fdd 1a3d 0324 ff3c bdfe b13c 1b48 87bd
00000060: f8ef 53bd 9b01 503c 7dc2 d1bc c76b 7f3d
00000070: 6d86 f93c bb4f 893d 187a 223d 7425 78bd
00000080: 3cda 81bd b358 1b3d b2eb 403b de41 b93b
00000090: 8530 49bd 9a08 4bbd 2b1f c5bc 0965 b13c
000000a0: 22ba b9bc 7fe0 f2bc f480 77bc 75b9 3f3d
000000b0: af45 a83c e6d8 6d3d 1507 7e3c e71c 65bd
000000c0: 5ff9 e73c 1d16 b3bc 6405 1bb9 3e63 09bd
000000d0: 8dc0 38bd 5626 5c3d 5ff9 f2bb 2e74 7d3d
000000e0: dbdd 97bd fbfd 3cbd 5b03 81bc e233 a73d
000000f0: 424d 6039 c233 4cbd f8f4 a1bc ca3b a83d
00000100: c640 81bd a25a ee3c 49a2 273d fb82 a13d
00000110: d7e9 873d bcc7 b9bc 7719 953c 7b71 da3c
00000120: 974c 893d 837e 2fbd 88d7 653d 0227 2cbd
00000130: 24e4 033d a617 88bd fbd9 e23c 6a48 2c3d
00000140: b123 7b3d be2b 843d 5663 623d d61a ffbc
00000150: bc52 6f3d e75c 45bd 258e 6bbb 7ff1 0dbd
00000160: 807d 47bc dee2 1e3c a085 b9ba 3611 363b
00000170: 79c5 ce3d 4964 583d faa7 ad3c eb71 2c3d
00000180: 55cd 843d 17b6 963d bed9 42bd f9e5 c83c

conv4.weight f4 [1, 100, 5]
-0.12544884 -0.19841112 -0.14489104 -0.14441688 -0.18625139 0.02995797 -0.007025302 0.054514844
-0.0055159866 0.00097239774 -0.1137127 -0.05892169 -0.11579917 -0.14598665 -0.16582817 0.032198407
-0.035046875 0.0070064072 -0.022059506 -0.041460264 -0.0052230363 0.027582495 0.02954102 0.057647306
0.06215802 -0.026428867 0.014252032 0.011386216 -0.06354362 -0.04358431 -0.016601752 -0.019379064
0.029497206 0.002036389 0.033105925 0.050668236 0.059921563 0.02244096 0.013285091 0.06818575
-0.019807503 0.017516727 -0.0021100747 -0.082652815 -0.07434452 0.22412512 0.19671585 0.15810317
0.024786182 0.092923366 0.012140127 -0.03190861 -0.032738827 -0.063963965 -0.04700169 -0.11041262
-0.1353004 -0.1197251 -0.108955875 -0.123445034 -0.01594154 0.016488427 -0.04314582 0.005265934
-0.010725019 0.024038387 -0.003855421 -0.022322915 -0.050197303 -0.018000536 0.06839008 0.07233543
0.08775453 0.10361578 0.104432926 -0.014960531 0.033352003 0.05218987 0.0024986335 -0.038766872
-0.009650895 -0.0031519646 0.048217263 -0.020500237 0.027956225 0.045772612 0.025380868 0.07067502
0.0120448815 0.02025894 -0.09013036 -0.16819327 -0.12875828 -0.15958078 -0.16348039 -0.008976659
0.02124526 0.041638847 0.008396277 0.016065389 0.050703567 0.013899791 0.036411177 0.019090164
-0.037264924 -0.01631737 0.05760602 0.038844984 -0.019253008 0.047071815 0.07253286 -0.002446088
0.064492285 -0.021728395 -0.002819845 0.011878446 0.034029488 0.00087554764 0.03591421 0.0318739
-0.1339137 -0.15069333 -0.12802091 -0.10021507 -0.09496983 -0.04199927 -0.012695733 0.07789877
0.007020594 0.051967252 0.06271448 0.031950276 0.012937088 0.006027731 0.017374674 0.04942669
-0.029552922 0.046475206 0.0019636196 0.04237855 -0.03583125 -0.0074205687 -0.057453044 -0.07269758
-0.07739962 0.03948128 0.049555615 0.028853783 0.03528141 0.05184339 -0.037582416 0.0133084515
0.018688802 0.0055444776 0.015909784 0.019086862 0.00767337 0.02029978 0.022768946 -0.012468174
-0.016701547 0.007776177 -0.026767273 -0.08209593 -0.042605694 0.034143377 0.054624654 -0.0014943881
0.044419166 -0.038460862 0.033281967 0.040937666 -0.03620617 -0.06965244 -0.013255178 0.00846896
-0.019630775 -0.058478963 -0.030429618 -0.023720054 0.035497647 -0.053715687 -0.04457277 -0.08160474
-0.026546303 -0.28797007 -0.35265675 -0.3127918 -0.2668922 -0.29227528 0.023370944 -0.040126827
-0.044092413 0.018498486 0.004449327 0.109390035 0.06397848 0.11384767 0.079109296 0.09732111
-0.04172067 -0.025186682 -0.02980989 0.0074314894 0.022443343 0.06660336 0.1153244 0.10257358
0.060772285 -0.009350439 -0.035500817 0.03063485 0.01006272 -0.03984324 -0.023844343 0.04999837
-0.00833626 0.011402099 0.03824627 0.005306104 0.03255481 0.025607344 0.07755621 -0.03468992
0.059242222 0.15628082 0.09538096 0.2880662 0.11244347 0.16743784 -0.0102401255 0.072969995
0.06547613 0.0656725 0.10143112 -0.029008742 -0.027398927 -0.013336273 0.013707196 -0.030118331
-0.04375957 -0.06405848 -0.06679944 -0.08524638 -0.057087447 0.018530471 -0.005293465 0.04737824
-0.008353105 0.016482359 0.115954675 0.022932172 0.108980805 0.06110594 0.025357611 -0.16115032
00000000: a975 00be 492c 4bbe 515e 14be 05e2 13be
00000010: afb8 3ebe 6b6a f53c 8134 e6bb f54a 5f3d
00000020: 73bf b4bb 82e8 7e3a 34e2 e8bd df57 71bd
00000030: 1e28 edbd 867d 15be dcce 29be 7ae2 033d
00000040: 508d 0fbd 0196 e53b 23b6 b4bc 3dd2 29bd
00000050: 0126 abbb aff4 e13c 0200 f23c 951f 6c3d
00000060: 6899 7e3d 5a81 d8bc 5b81 693c 408d 3a3c
00000070: 2823 82bd 7685 32bd 6600 88bc d8c0 9ebc
00000080: 20a4 f13c f074 053b 149a 073d 7f89 4f3d
00000090: 5070 753d 1bd6 b73c b6a9 593c f8a4 8b3d
000000a0: 5843 a2bc 3d7f 8f3c 2e49 0abb e145 a9bd
000000b0: f141 98bd 0e81 653e e16f 493e cce5 213e
000000c0: 640c cb3c 9b4e be3d 62e7 463c 9ab2 02bd
000000d0: 2619 06bd 8aff 82bd d884 40bd 0320 e2bd
000000e0: 308c 0abe 6f32 f5bd 4224 dfbd c0d0 fcbd
000000f0: d597 82bc bd12 873c acb9 30bd db8d ac3b
00000100: fdb7 2fbc 27ec c43c 3bab 7cbb 8cde b6bc
00000110: b09b 4dbd dc75 93bc 1910 8c3d 9924 943d
00000120: a6b8 b33d 8334 d43d eee0 d53d 041d 75bc
00000130: 1c9c 083d 0cc5 553d 1dc0 233b 03ca 1ebd
00000140: ca1e 1ebc 3191 4ebb 777f 453d 1df0 a7bc
00000150: 7404 e53c 107c 3b3d 8aeb cf3c 11be 903d
00000160: e557 453c 14f6 a53c 4496 b8bd db3a 2cbe
00000170: 36d9 03be 2569 23be 6767 27be d612 13bc
00000180: 8a0a ae3c 7f8d 2a3d 8a90 093c 909b 833c
00000190: 8bae 4f3d f3bb 633c e323 153d fa62 9c3c
000001a0: 1ba3 18bd 01ac 85bc 4af4 6b3d eb1b 1f3d
000001b0: 7cb8 9dbc 60ce 403d 1c8c 943d 8c4e 20bb
000001c0: 8814 843d bfff b1bc 26cd 38bb d09d 423c
000001d0: 8162 0b3d 0285 653a c71a 133d 358e 023d
000001e0: ac20 09be 5a4f 1abe ea17 03be 8f3d cdbd
000001f0: 8b7f c2bd 6d07 2cbd c401 50bc 6489 9f3d
00000200: 030d e63b 9ddb 543d 7370 803d 4bde 023d
00000210: 14f6 533c 4684 c53b 5555 8e3c a473 4a3d
00000220: f818 f2bc c95c 3e3d 12b0 003b 2195 2d3d
00000230: cac3 12bd 3e28 f3bb e253 6bbd 78e2 94bd
00000240: b183 9ebd 1fb7 213d d4fa 4a3d c55e ec3c
00000250: 3d83 103d bc59 543d 05f0 19bd b10b 5a3c
00000260: 4219 993c 73ae b53b 3c55 823c 0d5c 9c3c
00000270: e570 fb3b b94b a63c f185 ba3c 5047 4cbc
00000280: afd1 88bc 4dcf fe3b 0a47 dbbc e921 a8bd
00000290: 4f83 2ebd edd9 0b3d 1abe 5f3d 58df c3ba
000002a0: dff0 353d 2389 1dbd ac52 083d 41ae 273d
000002b0: ec4c 14bd f0a5 8ebd 3f2c 59bc 65c1 0a3c
000002c0: b8d0 a0bc a387 6fbd 8947 f9bc 8f50 c2bc
000002d0: fb65 113d fb04 5cbd f091 36bd 6320 a7bd
000002e0: a277 d9bc d070 93be 6d8f b4be 3f26 a0be
000002f0: 18a6 88be 1ba5 95be 6c74 bf3c 075c 24bd
00000300: 3f9a 34bd 238a 973c a9cb 913b e207 e03d
00000310: 2607 833d f828 e93d 0e04 a23d 4a50 c73d
00000320: 4be3 2abd 4d54 cebc df33 f4bc da83 f33b
00000330: 1adb b73c 5867 883d 332f ec3d 1912 d23d
00000340: 5cec 783d 9532 19bc 4e69 11bd f0f5 fa3c
00000350: 1bde 243c aa32 23bd 3655 c3bc 17cb 4c3d
00000360: cf94 08bc dfcf 3a3c 1fa8 1c3d d4de ad3b
00000370: 3158 053d 7ec6 d13c cad5 9e3d 0417 0ebd
00000380: f9a7 723d 1408 203e 1857 c33d 6a7d 933e
00000390: c348 e63d d374 2b3e 33c6 27bc 4b71 953d
000003a0: 5918 863d 4e7f 863d 1ebb cf3d bea3 edbc
000003b0: b773 e0bc 6280 5abc 2694 603c b8ba f6bc
000003c0: 3c3d 33bd 1831 83bd 25ce 88bd a795 aebd
000003d0: 87d4 69bd 37cd 973c ce74 adbb af0f 423d
000003e0: 76db 08bc 0306 873c a579 ed3d 40dc bb3c
000003f0: 5431 df3d 394a 7a3d c4ba cf3c 9704 25be

fc1.weight f4 [34, 34]
0.029616395 -0.06198243 0.035878498 -0.04431146 0.032765485 0.17325884 0.14019315 -0.057883564
-0.026404165 -0.035327986 -0.04827098 -0.044044595 -0.007948967 0.16078822 0.1112432 -0.10913696
-0.07165892 -0.07303662 0.05610792 0.15317886 0.022695865 0.008333318 0.02612299 -0.05630347
-0.022679225 0.07746681 0.048529983 -0.08257205 -0.04962393 0.13716578 -0.082279965 0.17020734
-0.08576783 0.052054085 -0.014277422 -0.13149855 0.051856507 -0.0564399 -0.02944622 0.13398589
-0.13959672 -0.03803316 0.113394715 -0.051265463 0.06437974 -0.1126071 0.057609644 0.11398472
0.15301676 0.01608407 -0.108843535 -0.08551092 -0.026463801 -0.023232525 -0.035397176 -0.14016703
-0.150714 -0.08435204 0.13135603 -0.00026674228 0.038989 -0.061232608 0.06253384 0.05848149
-0.03762329 0.2222564 0.17710161 0.08384622 -0.010590537 -0.17427863 -0.15293685 0.017015174
-0.022021366 -0.056501485 0.07031104 -0.0875492 0.13502823 0.06436821 0.04413351 0.11225676
-0.08648235 0.06523549 -0.050871145 0.03886084 0.006713676 0.11235064 -0.13468342 0.16900437
-0.019060586 -0.09875848 -0.17202346 0.027224263 -0.13930523 0.070400245 -0.036957372 -0.04894607
-0.06803193 -0.031329226 -0.1530086 0.083315186 0.14927474 0.12743026 0.17014132 0.17555173
0.11170393 0.07409479 0.100228444 -0.11260675 0.1221645 0.027615484 0.05984334 -0.09562307
-0.11361639 -0.055498052 0.016028587 -0.020948654 -0.0393563 0.033840653 -0.012240077 -0.04850909
0.1335718 0.013085477 0.18437111 -0.0123178745 0.08841121 0.12810062 -0.09869704 -0.04850606
-0.045441855 0.1661865 0.05398558 0.063957535 -0.06525516 0.037867527 0.11140128 -0.11836427
-0.020132856 0.017598217 0.09078732 -0.16657329 -0.16111296 0.15574926 -0.120339595 -0.110389076
-0.1198602 0.10517399 0.057005018 -0.071227185 0.16535395 0.16013771 -0.099578224 0.110430926
0.0828522 -0.006119714 0.16397034 -0.03433634 0.16700175 0.007850136 0.081823505 0.17008778
-0.13222735 0.17435542 0.09200144 -0.119579956 0.13594146 -0.06929309 -0.073682025 -0.019157989
-0.011489647 -0.07722511 -0.14034499 0.052277025 -0.10994992 0.11691021 -0.12633373 -0.06605529
-0.11973135 -0.052602787 -0.015433387 0.06392606 -0.012028918 -0.048488826 0.10173673 -0.09152674
-0.0761257 0.041846093 0.15644011 -0.05280162 0.06355039 0.06825343 -0.098556496 -0.08750249
0.04967184 -0.029541332 -0.04908429 -0.10998878 0.13510346 -0.1568378 -0.05678273 -0.13908069
0.0141977165 0.00045669943 0.04665106 -0.03293914 0.16100855 0.1881839 0.12043466 -0.039057028
-0.11236842 0.046390176 0.08839735 0.13198824 -0.07977358 0.10919381 0.06719789 -0.08430201
-0.03695385 -0.052875582 -0.16636139 -0.081376486 -0.15896128 0.07114355 0.019509448 -0.14254433
-0.14553337 0.08142333 -0.1404174 -0.01259776 -0.0023039316 -0.10607284 0.04606147 0.07504914
0.18390936 0.016441334 -0.24262075 -0.00024489002 -0.06350471 0.025342328 -0.1369608 0.1425844
-0.038877975 -0.118853465 -0.07029192 0.0052797226 0.1213866 0.057790946 -0.0100051295 0.17351684
-0.10074214 -0.00022508488 -0.054552432 0.16165625 0.09757665 -0.0823218 -0.08753511 0.09537026
00000000: 159e f23c 4ae1 7dbd 55f5 123d ef7f 35bd
00000010: 1a35 063d c46a 313e cb8e 0f3e 5117 6dbd
00000020: 8c4d d8bc 14b4 10bd cbb7 45bd 1b68 34bd
00000030: 623c 02bc aba5 243e 7ad3 e33d 3383 dfbd
00000040: e9c1 92bd 3994 95bd 6bd1 653d ebda 1c3e
00000050: aeec b93c 7888 083c e1ff d53c 789e 66bd
00000060: c8c9 b9bc eba6 9e3d 60c7 463d 891b a9bd
00000070: 7642 4bbd 3075 0c3e 6682 a8bd d54a 2e3e
00000080: 0ba7 afbd aa36 553d d9eb 69bc 8ea7 06be
00000090: 7d67 543d 862d 67bd 3339 f1bc 9933 093e
000000a0: 71f2 0ebe a9c8 1bbd 7d3b e83d bcfb 51bd
000000b0: 86d9 833d 8d9e e6bd 17f8 6b3d d270 e93d
000000c0: 6db0 1c3e bdc2 833c 5ce9 debd 5920 afbd
000000d0: 9dca d8bc 2352 bebc a1fc 10bd f287 0fbe
000000e0: c554 1abe c3c0 acbd 3282 063e 8bd9 8bb9
000000f0: eeb2 1f3d 0bcf 7abd be11 803d 498a 6f3d
00000100: e11a 1abd 2f97 633e 205a 353e 91b7 ab3d
00000110: ef83 2dbc 1976 32be 7a9b 1cbe 6863 8b3c
00000120: 2766 b4bc 1a6e 67bd 3cff 8f3d ff4c b3bd
00000130: d744 0a3e 7bd3 833d 57c5 343d dfe6 e53d
00000140: a91d b1bd 2f9a 853d 435e 50bd 8b2c 1f3d
00000150: 65fe db3b 1818 e63d 73ea 09be 7b0f 2d3e
00000160: f224 9cbc e341 cabd eb26 30be 6b05 df3c
00000170: 08a6 0ebe 012e 903d 9d60 17bd ad7b 48bd
00000180: 5354 8bbd 1353 00bd 49ae 1cbe 27a1 aa3d
00000190: 7adb 183e 147d 023e 8739 2e3e d5c3 333e
000001a0: 08c5 e43d 02bf 973d 9244 cd3d 5e9e e6bd
000001b0: 6231 fa3d de39 e23c 4a1e 753d 07d6 c3bd
000001c0: b6af e8bd ed51 63bd 624e 833c 839c abbc
000001d0: 1234 21bd 7f9c 0a3d 9b8a 48bc 78b1 46bd
000001e0: 0cc7 083e 7864 563c c8cb 3c3e e9d0 49bc
000001f0: f010 b53d cf2c 033e ac21 cabd 4aae 46bd
00000200: 3d21 3abd cb2c 2a3e fc1f 5d3d 2bfc 823d
00000210: 7fa4 85bd fb1a 1b3d 5b26 e43d f768 f2bd
00000220: a9ed a4bc 232a 903c b4ee b93d 3092 2abe
00000230: ccfa 24be bc7c 1f3e 9b74 f6bd ab13 e2bd
00000240: 4479 f5bd 7665 d73d 187e 693d 8fdf 91bd
00000250: 8c52 293e 24fb 233e abef cbbd 9c29 e23d
00000260: 6aae a93d e287 c8bb d7e7 273e 43a4 0cbd
00000270: 8202 2b3e db9d 003c 1593 a73d 7e2b 2e3e
00000280: 9b66 07be 3a8a 323e 406b bc3d 56e6 f4bd
00000290: 3d34 0b3e 89e9 8dbd 9ae6 96bd 37f1 9cbc
000002a0: 133f 3cbc 3328 9ebd 99b6 0fbe 6f20 563d
000002b0: 6c2d e1bd 9f6e ef3d a15d 01be ff47 87bd
000002c0: b635 f5bd 0576 57bd 51dc 7cbc abeb 823d
000002d0: f014 45bc 389c 46bd 595b d03d 5f72 bbbd
000002e0: cae7 9bbd cf66 2b3d d631 203e 8346 58bd
000002f0: b526 823d 74c8 8b3d fdd7 c9bd 8134 b3bd
00000300: b374 4b3d aa00 f2bc 9c0c 49bd cc41 e1bd
00000310: 9058 0a3e 179a 20be 0295 68bd 2b6b 0ebe
00000320: 8a9d 683c 2971 ef39 2f15 3f3d 31eb 06bd
00000330: 6ddf 243e 48b3 403e 72a6 f63d 43fa 1fbd
00000340: 6a21 e6bd a003 3e3d ab09 b53d ed27 073e
00000350: 5560 a3bd 01a1 df3d 0c9f 893d 88a6 acbd
00000360: ec5c 17bd 1194 58bd a45a 2abe b7a8 a6bd
00000370: bfc6 22be b6b3 913d 47d2 9f3c 24f7 11be
00000380: b306 15be 46c1 a63d 94c9 0fbe d666 4ebc
00000390: 8ffd 16bb b83c d9bd f4aa 3c3d 5db3 993d
000003a0: bc52 3c3e faaf 863c 9371 78be 9564 80b9
000003b0: c20e 82bd b79a cf3c 743f 0cbe a501 123e
000003c0: 833e 1fbd 7269 f3bd 36f5 8fbd 8601 ad3b
000003d0: 8a99 f83d 33b6 6c3d 8eec 23bc 66ae 313e
000003e0: e551 cebd c304 6cb9 5f72 5fbd 3789 253e
000003f0: 44d6 c73d 5598 a8bd 9c45 b3bd 7c51 c33d

fc1.bias f4 [34]
-0.23293842 -0.02188523 -0.00030558958 0.073967755 0.077817276 -0.056981985 0.090351395 -0.08580987
-0.026376076 -0.055261925 0.115841836 -0.117401 -0.110013045 -0.077539615 -0.020666866 0.13267349
0.19521141 -0.14286196 0.113222405 0.18228862 0.19953781 0.16423218 0.06605861 -0.15272501
0.0028375983 0.06906837 -0.23870033 0.09888128 0.095142 -0.10875828 -0.057388697 -0.03943382
-0.10965936 -0.21607962
00000000: 6987 6ebe a748 b3bc 8a37 a0b9 687c 973d
00000010: aa5e 9f3d f165 69bd 270a b93d 16bd afbd
00000020: a412 d8bc 545a 62bd 7c3e ed3d ef6f f0bd
00000030: 854e e1bd 17cd 9ebd 8f4d a9bc 8fdb 073e
00000040: 80e5 473e 684a 12be 26e1 e73d dea9 3a3e
00000050: a453 4c3e 7b2c 283e bd49 873d f263 1cbe
00000060: 00f7 393b b873 8d3d dc6d 74be 4582 ca3d
00000070: cfd9 c23d a9bc debd 6910 6bbd 5b85 21bd
00000080: 1695 e0bd fa43 5dbe

fc2.weight f4 [1, 34]
0.05661807 -0.17833841 -0.33507326 0.1617323 -0.0314037 -0.07300942 -0.20084049 0.19596784
-0.2673934 0.055607036 -0.25085947 0.08517142 -0.26885217 0.08792895 -0.03010574 -0.3793805
-0.027101902 0.13415197 -0.071733095 -0.2985869 -0.22130553 -0.17158234 0.004610345 -0.12675442
0.10045704 0.15432854 0.06425428 -0.18339986 -0.46581712 0.08626331 -0.022954019 0.07091457
0.16482823 0.3842611
00000000: 59e8 673d 589e 36be b98e abbe 279d 253e
00000010: 2ba1 00bd f685 95bd 21a9 4dbe cbab 483e
00000020: cae7 88be 34c4 633d a770 80be 5a6e ae3d
00000030: fea6 89be 1814 b43d 50a0 f6bc 293e c2be
00000040: cf04 debc 225f 093e cde8 92bd 62e0 98be
00000050: eb9d 62be 48b3 2fbe 6012 973b e9cb 01be
00000060: 6cbc cd3d 4d08 1e3e bf97 833d 2ccd 3bbe
00000070: 957f eebe d1aa b03d 110a bcbc a83b 913d
00000080: bbc8 283e dfbd c43e
