trained_models/models/airfoil/2024-11-18_model_Cd_ESCNN_lr5e-05_e250_convL3.pth (torch, 179666 bytes, 8 tensors)

conv1.weight f4 [200, 1, 5]
-0.45057935 -0.38037097 0.23782416 0.27039036 0.29087323 -0.107157044 -0.06646838 0.013260277
0.3992443 0.041435704 -0.021864217 0.2765317 0.013489112 -0.2773074 -0.13231856 0.21554868
0.006535063 0.3642758 0.35871804 -0.41055107 -0.15780617 0.004135041 -0.36808497 0.47323015
0.12895976 -0.26905343 -0.0056383247 0.39514568 0.38427642 -0.20760708 -0.22488463 -0.11864951
-0.03584876 -0.18807977 0.028258193 -0.36820394 0.13370973 -0.26224846 0.4624204 -0.37929893
-0.2805265 -0.24506453 -0.033576008 -0.436187 -0.041324884 0.18090399 -0.24542722 0.40122694
-0.39654583 -0.2753588 -0.3007382 -0.112426035 -0.17212665 -0.28897694 0.26791066 -0.24735646
0.30761844 -0.4328805 -0.27484074 -0.33177996 -0.3896606 0.27382043 -0.12432586 -0.2433293
-0.19257253 -0.13509218 -0.18956953 -0.3857581 0.16392314 0.10360372 0.0051870816 -0.3098235
-0.09873165 -0.22219607 -0.31933808 -0.30851176 -0.1777913 -0.055194035 0.008561616 0.1327234
0.42207384 -0.062864974 -0.1525852 -0.26624438 0.25275856 0.15004002 0.52251077 -0.14195374
0.20914544 0.298758 0.31960425 -0.37720418 -0.030608162 -0.47051635 0.0989542 -0.22478044
0.48598877 -0.28173444 -0.36970916 0.38929838 0.25158596 0.42185703 -0.19979073 0.2449075
0.21213487 -0.12750988 0.46064416 0.4019753 0.34804916 -0.25783283 -0.12211237 0.37809587
0.4427898 0.3892641 -0.242539 0.3085255 0.37553045 0.26642096 -0.4104273 -0.18185861
-0.26109126 0.4238114 -0.19420218 -0.011305457 0.049187988 -0.18732662 -0.42203483 0.42750868
0.038564935 -0.35237646 0.33816418 -0.4829043 -0.04037973 -0.25183555 0.24596168 -0.14565599
0.1688805 -0.42591658 -0.03420453 -0.16097182 0.32749942 0.31052628 0.10593893 -0.031780463
0.38245985 -0.3003719 -0.29619622 -0.15897022 -0.18832104 0.2756923 -0.46056318 0.3032746
0.29784867 0.15876429 0.32749984 -0.35435545 0.446857 -0.33841372 0.18963799 -0.32790548
0.45338908 0.18367319 -0.39538488 0.2579011 0.30197114 0.13513537 -0.050286606 -0.31614226
0.21093589 0.34138876 0.00968367 -0.035716902 -0.21586892 -0.14090085 -0.2269843 -0.26771823
-0.22283363 0.13262092 -0.6211271 0.062055457 -0.39965802 0.13916498 -0.24137658 0.25194806
-0.004062403 0.4423092 0.16478232 0.15828723 0.118758194 0.38215557 0.39544788 -0.037371106
-0.36312136 0.32838723 -0.30576757 0.17336522 0.10492305 0.3304982 -0.3486699 -0.33063793
0.10782069 -0.4499786 0.4310627 0.19901085 -0.38135874 -0.11402301 -0.028422736 -0.0013806347
-0.011714621 0.33430594 0.057567317 -0.16478962 0.16532215 -0.061611574 -0.34398234 0.35095614
-0.090094395 0.110499814 0.22810279 -0.074608475 0.1444627 0.35859898 0.10421588 0.00025632806
-0.39517185 0.41943136 0.3581934 0.29007342 0.09816803 0.28844017 -0.14475286 -0.37992978
-0.16869853 -0.56071436 0.19143347 0.14362821 -0.38326734 -0.37475625 -0.5427348 0.07476265
-0.29475176 0.2649611 -0.43497467 0.067437984 0.011158215 -0.07010053 -0.43505606 0.06960892
0.07160441 0.37728295 0.18146686 0.114285804 0.042320065 -0.22544566 -0.24027693 0.26649547
00000000: 56b2 e6be fcbf c2be 2d88 733e 9b70 8a3e
00000010: 56ed 943e 2775 dbbd 9320 88bd a241 593c
00000020: c069 cc3e 7cb8 293d 961c b3bc 9095 8d3e
00000030: 7001 5d3c 3cfb 8dbe 847e 07be cbb8 5c3e
00000040: 1524 d63b 5c82 ba3e e4a9 b73e c033 d2be
00000050: f197 21be 3d7f 873b a275 bcbe 394b f23e
00000060: 070e 043e 5fc1 89be b2c1 b8bb 8950 ca3e
00000070: e1bf c43e f396 54be 2848 66be 84fe f2bd
00000080: 26d6 12bd fc97 40be ba7d e73c 3a85 bcbe
00000090: 34eb 083e 6e45 86be 5ec2 ec3e 7833 c2be
000000a0: 2ba1 8fbe 32f2 7abe ff86 09bd e753 dfbe
000000b0: 4844 29bd e53e 393e 4651 7bbe 9e6d cd3e
000000c0: 0e08 cbbe d4fb 8cbe 5bfa 99be 9f3f e6bd
000000d0: f841 30be c9f4 93be 962b 893e 034b 7dbe
000000e0: 2a80 9d3e 83a2 ddbe edb7 8cbe 10df a9be
000000f0: 9881 c7be 3132 8c3e 8e9e febd 512b 79be
00000100: bc31 45be 9b55 0abe 841e 42be 1682 c5be
00000110: 78db 273e 302e d43d 65f8 a93b 30a1 9ebe
00000120: d233 cabd 5e87 63be 4880 a3be 41f5 9dbe
00000130: ec0e 36be 2413 62bd 0546 0c3c a5e8 073e
00000140: 101a d83e 5abf 80bd 4b3f 1cbe 2f51 88be
00000150: 9269 813e 17a4 193e 44c3 053f 525c 11be
00000160: 392a 563e cff6 983e 2ba3 a33e e820 c1be
00000170: f8bd fabc 85e7 f0be 80a8 ca3d d82c 66be
00000180: 85d3 f83e 7f3f 90be 854a bdbe 1e52 c73e
00000190: e0cf 803e a5fd d73e f195 4cbe 08c9 7a3e
000001a0: e239 593e f391 02be 8dd9 eb3e b5cf cd3e
000001b0: 8033 b23e aa02 84be 0d16 fabd c895 c13e
000001c0: 58b5 e23e a04d c73e 255c 78be 0ef7 9d3e
000001d0: 8745 c03e 5468 883e 8723 d2be 2539 3abe
000001e0: c1ad 85be cffd d83e f0dc 46be 863a 39bc
000001f0: 5879 493d 8dd2 3fbe f314 d8be 6be2 da3e
00000200: 44f6 1d3d b06a b4be db23 ad3e 3b3f f7be
00000210: 3765 25bd 97f0 80be 61dd 7b3e d826 15be
00000220: 03ef 2c3e bd11 dabe 0d1a 0cbd ccd5 24be
00000230: 01ae a73e 4dfd 9e3e 82f6 d83d 3b2c 02bd
00000240: c7d1 c33e 58ca 99be 08a7 97be 17c9 22be
00000250: 3bd7 40be 8b27 8d3e f0ce ebbe cf46 9b3e
00000260: 9f7f 983e 1b93 223e 0fae a73e 146e b5be
00000270: 71ca e43e 9044 adbe 7630 423e 3ae3 a7be
00000280: 9d22 e83e d314 3c3e e36f cabe 9d0b 843e
00000290: f69b 9a3e ed60 0a3e 54f9 4dbd 66dd a1be
000002a0: 94ff 573e 82ca ae3e 41a8 1e3c e34b 12bd
000002b0: be0c 5dbe 5048 10be 936e 68be 5d12 89be
000002c0: 802e 64be c7cd 073e 3002 1fbf dd2d 7e3d
000002d0: fa9f ccbe 4481 0e3e 6c2b 77be 56ff 803e
000002e0: e81d 85bb 5a76 e23e b2bc 283e 0c16 223e
000002f0: 7f37 f33d e5a9 c33e 2578 ca3e 7212 19bd
00000300: 0beb b9be 5f22 a83e 918d 9cbe a786 313e
00000310: e5e1 d63d 0f37 a93e dc84 b2be 6049 a9be
00000320: 18d1 dc3d 9863 e6be 40b4 dc3e 80c9 4b3e
00000330: 7441 c3be e584 e9bd ccd6 e8bc 6af6 b4ba
00000340: afee 3fbc 262a ab3e b5cb 6b3d 9cbe 28be
00000350: 364a 293e 6b5c 7cbd 741e b0be 86b0 b33e
00000360: 6983 b8bd ba4d e23d c793 693e 54cc 98bd
00000370: 08ee 133e 499a b73e 236f d53d c563 8639
00000380: f753 cabe b5bf d63e 2065 b73e 8184 943e
00000390: 520c c93d 6eae 933e 183a 14be 2886 c2be
000003a0: 4fbf 2cbe fa8a 0fbf 2307 443e 4613 133e
000003b0: 9e3b c4be 0de0 bfbe abf0 0abf 291d 993d
000003c0: b4e9 96be fba8 873e 00b5 debe ed1c 8a3d
000003d0: f2d0 363c de90 8fbd abbf debe 1f8f 8e3d
000003e0: 55a5 923d 3b2b c13e 73d2 393e ad0e ea3d
000003f0: ce57 2d3d 3adb 66be 280b 76be 1872 883e

conv1.bias f4 [200]
-0.09019799 0.010296733 -0.34955692 -0.09443741 -0.4448732 0.36593655 -0.38427266 0.21434112
0.42259747 0.40518415 -0.21337813 -0.17446071 -0.4432533 0.26374856 0.12430934 -0.3418694
-0.103916496 -0.14195582 -0.21750085 0.33304045 0.086599365 0.069068044 0.25348878 -0.15336713
-0.27599016 -0.03475418 -0.11872391 -0.21832088 0.13826126 -0.18911977 0.38825792 0.433787
-0.37875974 0.3395229 0.03343501 0.1533987 0.1465127 0.1743172 -0.3197172 0.40351453
-0.24053966 0.40216443 -0.17042248 0.03721023 -0.37893465 -0.2152373 0.099269845 -0.29963088
0.14969483 0.42048064 0.14963228 0.1586602 0.33423147 -0.137236 -0.27528605 -0.27268225
-0.051679682 0.0151221985 -0.015075962 0.22307357 0.39202625 -0.01946005 0.3077675 0.15776019
-0.1967504 0.009926931 -0.20913805 -0.1759368 -0.13987553 -0.18222974 0.07723033 0.12618811
0.20764796 -0.12772115 -0.24534005 -0.10079307 -0.03485508 0.29103544 0.1433596 -0.19869696
0.06348236 0.38629353 0.090336524 -0.1786128 -0.072224386 -0.15375711 0.09656915 0.05931872
-0.16644397 0.2746494 -0.07212983 -0.2557825 0.20743643 -0.21730807 0.32889342 -0.18786478
-0.23653816 -0.20744714 0.413392 0.1808202 -0.291433 -0.3257858 -0.30262247 -0.48048836
0.44462356 0.10418609 0.32751292 0.023187457 -0.42321682 -0.3342491 0.35560966 -0.09301919
0.3531486 -0.22437796 -0.105362944 0.3724065 -0.040453028 -0.1420356 -0.34393206 0.4033825
0.28554395 0.15187606 -0.13373753 -0.10042801 0.04850665 -0.116725124 -0.4255647 -0.43586415
-0.13728572 -0.06493235 -0.3050632 -0.17521808 -0.2076912 -0.053597488 -0.109002866 -0.16509855
-0.040137105 -0.082734056 0.33474267 -0.44079024 -0.25816068 0.021637991 -0.36130968 -0.20273738
-0.106572635 0.15345655 -0.14522797 0.3664518 0.043904755 -0.40133786 -0.12498054 -0.05889043
-0.029542115 -0.19175436 -0.46441382 -0.40429997 -0.10049248 0.17311642 0.19519484 -0.08504589
0.046593666 0.04512263 -0.017608903 -0.34356886 -0.45341113 0.066594206 -0.10270595 0.29603246
0.06184767 -0.20259859 -0.32145467 -0.18045488 -0.38166457 -0.2768101 -0.09866764 -0.09506685
0.11894396 -0.09946615 0.3474294 0.21015126 -0.0028999501 -0.05589201 0.021314615 0.248725
0.012671395 0.32233992 -0.2288102 -0.35181454 -0.21441185 0.23639822 0.32444414 0.39129737
-0.46550667 -0.25662416 -0.084861495 0.3257998 0.23598434 -0.34733793 -0.3739496 -0.27888608
00000000: b9b9 b8bd a1b3 283c 20f9 b2be 6768 c1bd
00000010: 6cc6 e3be 095c bb3e 63bf c4be 3d7c 5b3e
00000020: b25e d83e 4c74 cf3e cc7f 5abe d4a5 32be
00000030: 19f2 e2be 0d0a 873e e595 fe3d 8209 afbe
00000040: 2cd2 d4bd de5c 11be 8bb8 5ebe 4784 aa3e
00000050: 025b b13d 8c73 8d3d 48c9 813e 460c 1dbe
00000060: 954e 8dbe 665a 0ebd 8525 f3bd 828f 5fbe
00000070: 5c94 0d3e 9da8 41be bec9 c63e 5419 de3e
00000080: ccec c1be f2d5 ad3e 26f3 083d 8c14 1d3e
00000090: 6d07 163e 3580 323e f9b1 a3be 7599 ce3e
000000a0: 0750 76be 7fe8 cd3e 3b83 2ebe c169 183d
000000b0: b903 c2be 2b67 5cbe fd4d cb3d 3869 99be
000000c0: 9a49 193e 3d49 d73e 3439 193e d277 223e
000000d0: 6320 ab3e 9887 0cbe 4bf2 8cbe 029d 8bbe
000000e0: 13ae 53bd 19c3 773c 2b01 77bc 666d 643e
000000f0: aab7 c83e af6a 9fbc b493 9d3e e38b 213e
00000100: f078 49be 91a4 223c 4928 56be c728 34be
00000110: 883b 0fbe 6f9a 3abe ef2a 9e3d 7537 013e
00000120: aba1 543e 55c9 02be 6c3a 7bbe 996c cebd
00000130: 33c4 0ebd 9902 953e dccc 123e 3777 4bbe
00000140: 0a03 823d 44c8 c53e 5b02 b93d 46e6 36be
00000150: 61ea 93bd 8172 1dbe 0cc6 c53d 30f8 723d
00000160: 4a70 2abe d99e 8c3e ceb8 93bd edf5 82be
00000170: 376a 543e 0286 5ebe b864 a83e a05f 40be
00000180: 0f37 72be 066d 54be 1ea8 d33e ee28 393e
00000190: b536 95be 65cd a6be 55f1 9abe 9202 f6be
000001a0: b3a5 e33e 845f d53d c6af a73e 9ff3 bd3c
000001b0: e0af d8be b322 abbe 7812 b63e d880 bebd
000001c0: e5cf b43e 56c3 65be 87c8 d7bd 11ac be3e
000001d0: 13b2 25bd c871 11be dd17 b0be 2788 ce3e
000001e0: d132 923e 6685 1b3e 7ef2 08be 33ad cdbd
000001f0: e9ae 463d 950d efbd 9ee3 d9be 9629 dfbe
00000200: a194 0cbe 40fb 84bd 3e31 9cbe 5e6c 33be
00000210: 00ad 54be 0a89 5bbd e53c dfbd 980f 29be
00000220: ce66 24bd 7970 a9bd 6463 ab3e 42af e1be
00000230: a32d 84be 2842 b13c 95fd b8be 639a 4fbe
00000240: c142 dabd b723 1d3e a4b6 14be 929f bb3e
00000250: 79d5 333d 287c cdbe ccf5 ffbd 1737 71bd
00000260: 4e02 f2bc 415b 44be a6c7 edbe 6800 cfbe
00000270: 00cf cdbd 6e45 313e 28e1 473e 8a2c aebd
00000280: 00d9 3e3d 82d2 383d 8c40 90bc 42e8 afbe
00000290: 8125 e8be 8b62 883d 7f57 d2bd 9191 973e
000002a0: fb53 7d3d 0176 4fbe b595 a4be 2ac9 38be
000002b0: 8a69 c3be 0eba 8dbe 4212 cabd 69b2 c2bd
000002c0: e498 f33d e9b4 cbbd 44e2 b13e e431 573e
000002d0: 170d 3ebb 05ef 64bd fd9b ae3c c4b1 7e3e
000002e0: af9b 4f3c bd09 a53e 394d 6abe 0921 b4be
000002f0: c88e 5bbe 6012 723e 8b1d a63e 2158 c83e
00000300: e456 eebe 3e64 83be ddcb adbd 3bcf a63e
00000310: e1a5 713e 47d6 b1be 5276 bfbe 28ca 8ebe

conv2.weight f4 [200, 200, 1]
0.018359583 -0.050864443 0.0150866 0.06155127 0.053878177 0.06958689 -0.046753652 0.04714772
-0.012782819 0.019309217 0.041476708 -0.0077954046 0.037318736 0.025589544 -0.0773387 0.0111886505
0.06560656 -0.025735635 -0.004995456 0.02562708 0.0014758529 0.036911182 0.055340517 0.05200545
-0.053389903 -0.061012417 -0.056749895 -0.021719752 0.031372815 -0.029661741 0.0055159517 0.098229446
-0.05868596 -0.034208152 0.0030620946 0.06361607 -0.08379853 0.011750706 -0.008159135 -0.049133558
-0.03900521 -0.067199774 -0.06547403 0.03274426 -0.035277408 -0.0061126035 -0.011931699 -0.005247721
-0.020673044 0.04524601 -0.04379771 0.008087401 -0.00928428 -0.04856432 -0.037037566 -0.025319403
0.043480698 0.04156696 0.06479962 -0.024117153 0.06297641 -0.0015221585 0.030564962 -0.04139064
-0.019018695 -0.036159698 -0.055482272 0.037478257 0.026953615 0.008727964 0.04441008 -0.05353419
0.011022037 0.0032550315 0.035978414 0.043987148 -0.0063474616 0.0634219 0.039952934 0.0040484495
-0.025844242 -0.024687344 0.011979575 -0.05388507 -0.0028766128 -0.04817222 0.045467764 0.0057429965
-0.039177295 -0.0016699545 0.023707671 0.029016098 0.052104957 -0.026481241 -0.050050933 0.05197069
0.05214634 -0.03209444 0.033636246 -0.016505206 -0.0141760465 -0.035483956 -0.05311064 0.03253137
0.024284152 -0.021187168 0.01888156 0.053648748 0.037537023 0.04606107 -0.0305964 0.06486864
0.04479535 -0.001445968 -0.073623225 0.0048853112 -0.010211321 -0.008170687 0.0643962 -0.051908106
0.04332791 0.063879244 0.022846695 0.03046602 -0.06587924 0.064438716 -0.08287937 -0.06536734
0.06995816 0.022046756 0.0010542684 -0.00087399443 -0.019917045 0.016970726 -0.03320538 -0.02596701
-0.06852921 -0.06982221 0.020762408 0.065169275 0.024189143 0.019916717 -0.014169519 0.015176288
-0.026230004 0.031976238 -0.025052479 -0.024842119 0.008747542 -0.051301163 -0.014876736 0.006465644
0.022412058 0.04557361 0.009225979 0.054766588 0.016450843 -0.017273204 -0.06952493 0.06660356
-0.022823073 0.031702947 -0.05453029 -0.043872282 0.050130215 -0.00040792252 0.043997392 -0.040918335
-0.003332548 0.0521802 0.21217906 -0.028128993 -0.03164497 -0.06873965 0.015132314 -0.011461322
0.042428754 -0.012020855 0.07811783 0.051947333 -0.00072285975 0.019300003 -0.04564784 0.0050019296
0.027852658 0.0034161068 0.048818048 -0.05085491 0.039266817 0.12874413 0.032568157 -0.032876927
0.05115917 -0.022229366 -0.051089473 0.02705969 0.012196638 0.027296605 -0.04761535 0.051831115
0.00012049785 -0.024576703 -0.016193427 -0.052596424 0.008860499 0.06866498 0.03304588 -0.008401091
-0.07135561 -0.05514435 0.019193348 0.059971634 -0.045029677 -0.01959223 -0.012875717 -0.013791098
-0.062149312 0.058401175 0.06723533 -0.016746785 0.003621532 0.00020457915 0.04499039 -0.060352966
-0.044642534 -0.044506453 -0.03640856 -0.03267214 -0.0439785 -0.05985523 0.05529544 0.04415944
0.06269049 0.039247643 0.027579714 0.053211514 -0.03666117 0.052925482 -0.0331667 -0.040063508
-0.00949572 -0.05857174 -0.045648925 0.06313449 -0.044756122 0.016347012 0.059733693 -0.026247095
0.0008261353 -0.0006307714 0.056077622 -0.023162207 -0.026454095 -0.0636078 -0.02913467 -0.021312946
00000000: d666 963c 3c57 50bd c92d 773c 2f1d 7c3d
00000010: 5daf 5c3d 9283 8e3d c280 3fbd f81d 413d
00000020: 076f 51bc 5d2e 9e3c 7be3 293d 9870 ffbb
00000030: 88db 183d 2aa1 d13c c163 9ebd 9a50 373c
00000040: bb5c 863d 8ad3 d2bc ecb0 a3bb e2ef d13c
00000050: 6871 c13a 2e30 173d bdac 623d ab03 553d
00000060: 5faf 5abd 28e8 79bd 9472 68bd 9fed b1bc
00000070: c880 003d 2efd f2bc 28bf b43b 852c c93d
00000080: b060 70bd d91d 0cbd 6cad 483b 2449 823d
00000090: 909e abbd 0886 403c e4ad 05bc 4540 49bd
000000a0: edc3 1fbd 09a0 89bd 4017 86bd d81e 063d
000000b0: 0b7f 10bd 3c4c c8bb 2c7d 43bc 13f5 abbb
000000c0: 845a a9bc e153 393d 3a65 33bd 0581 043c
000000d0: 181d 18bc 61eb 46bd b4b4 17bd a36a cfbc
000000e0: d118 323d 1e42 2a3d aab5 843d 5691 c5bc
000000f0: c7f9 803d 2a83 c7ba 5f63 fa3c 3b89 29bd
00000100: 18cd 9bbc 311c 14bd 6141 63bd cd82 193d
00000110: d4cd dc3c bcff 0e3c 58e7 353d ab46 5bbd
00000120: c695 343c 5e52 553b 1a5e 133d de2b 343d
00000130: 5efe cfbb 57e3 813d b0a5 233d dba8 843b
00000140: 4eb7 d3bc 1d3d cabc fb45 443c 97b6 5cbd
00000150: 8e85 3cbb 3c50 45bd 683c 3a3d bf2f bc3b
00000160: 5f78 20bd 60e2 daba 9736 c23c 2bb3 ed3c
00000170: 026c 553d 30ef d8bc 3502 4dbd 38df 543d
00000180: 6797 553d 7675 03bd 29c6 093d ed35 87bc
00000190: a642 68bc a057 11bd 8b8a 59bd 9d3f 053d
000001a0: 8fef c63c b690 adbc 80ad 9a3c cabe 5b3d
000001b0: 6cc0 193d 88aa 3c3d 4da5 fabc d9d9 843d
000001c0: 547b 373d a386 bdba c6c7 96bd f614 a03b
000001d0: 624d 27bc 58de 05bc 28e2 833d 989d 54bd
000001e0: 9b78 313d 1fd3 823d fe28 bb3c e093 f93c
000001f0: b2eb 86bd 72f8 833d a9bc a9bd 50df 85bd
00000200: 3946 8f3d 669b b43c 612f 8a3a c61c 65ba
00000210: 1229 a3bc 3106 8b3c 5d02 08bd c4b8 d4bc
00000220: 0b59 8cbd f2fe 8ebd ed15 aa3c 7877 853d
00000230: 4f28 c63c 6228 a33c 4527 68bc f7a5 783c
00000240: 4ee0 d6bc 84f9 023d db3a cdbc b381 cbbc
00000250: da51 0f3c 2b21 52bd 8ebd 73bc c1dd d33b
00000260: 7e99 b73c 65ab 3a3d 9028 173c ee52 603d
00000270: ebc3 863c 8980 8dbc 1663 8ebd 7267 883d
00000280: 74f7 babc f3da 013d 275b 5fbd 6cb3 33bd
00000290: 5755 4d3d 6fde d5b9 9c36 343d fc99 27bd
000002a0: e166 5abb e8ba 553d 7845 593e c66e e6bc
000002b0: 289e 01bd 60c7 8cbd 86ed 773c 45c8 3bbc
000002c0: c6c9 2d3d 1ff3 44bc 3efc 9f3d bac6 543d
000002d0: 4c7e 3dba 0a1b 9e3c 3bf9 3abd 3ae7 a33b
000002e0: 422b e43c c3e0 5f3b 6ff5 473d 3d4d 50bd
000002f0: 3ed6 203d 80d5 033e 3066 053d f5a9 06bd
00000300: 478c 513d 5c1a b6bc 3243 51bd 48ac dd3c
00000310: 68d4 473c 219d df3c 5008 43bd dd4c 543d
00000320: cab3 fc38 1555 c9bc 14a8 84bc 596f 57bd
00000330: a02b 113c 3aa0 8c3d 1e5b 073d bba4 09bc
00000340: e422 92bd 0bdf 61bd 5e3b 9d3c d1a4 753d
00000350: 0a71 38bd e27f a0bc acf4 52bc 0ff4 61bc
00000360: 4790 7ebd 1236 6f3d adb2 893d 8e30 89bc
00000370: 3a57 6d3b 4c84 5639 d847 383d ac34 77bd
00000380: 17db 36bd 664c 36bd 2421 15bd 39d3 05bd
00000390: cd22 34bd c22a 75bd 797d 623d 87e0 343d
000003a0: df63 803d 23c2 203d daee e13c 51f4 593d
000003b0: 062a 16bd 64c8 583d ced9 07bd a219 24bd
000003c0: f093 1bbc ece8 6fbd 5efa 3abd a84c 813d
000003d0: 3252 37bd 2bea 853c 51ab 743d 2604 d7bc
000003e0: 0091 583a 5a5a 25ba a6b1 653d abbe bdbc
000003f0: 42b6 d8bc ce44 82bd d5ab eebc 7d98 aebc

conv2.bias f4 [200]
-0.013246375 -0.070448525 -0.040303044 0.047383662 -0.02591785 -0.06820079 -0.07886921 -0.01614397
-0.013143654 -0.022912765 -0.013140872 -0.031294193 0.017145809 -0.04196481 -0.06077097 0.024291782
0.03312556 0.033669982 -0.060914956 0.011657852 -0.03961258 -0.045738563 0.010371859 0.04082005
-0.053532057 -0.042822514 0.06416911 0.057028703 0.060032204 -0.045106832 -0.034702398 -0.042237613
0.043436065 -0.014822769 0.06557637 -0.04278154 -0.04759914 0.0023483462 0.06319376 -0.019804217
0.0042053163 -0.019138575 0.025542416 0.009518864 -0.07901629 0.00874682 -0.019724423 -0.06375383
0.051312663 -0.059252627 0.04029922 -0.050931767 -0.016061177 -0.05514013 -0.060683385 0.023506531
-0.044975746 -0.059776325 0.029382095 -0.023904432 -0.014781362 -0.036812037 -0.017857103 0.019939357
0.0015215359 -0.009091829 -0.00041371706 0.07467524 -0.008161951 0.00859016 -0.050024338 -0.059690714
-0.03352273 -0.06632941 -0.008276531 0.06155308 -0.012721508 0.027616935 0.05005785 -0.017838309
0.060305618 -0.027774496 -0.0048780083 0.03723588 0.0065763365 0.0036717723 -0.011660935 0.069303095
-0.028402094 -0.08714925 -0.00058090163 -0.0105041135 -0.033650126 0.01942166 -0.054099206 0.031571425
-0.02271074 0.033421673 -0.0011974435 0.037990794 0.023235975 -0.0026892552 0.05592808 -0.012192316
0.043078676 0.008202949 -0.037050385 -0.0067302217 -0.030074492 0.03959275 0.06228812 -0.055022493
-0.01860276 0.060089115 0.01911201 -0.0524462 -0.039729655 -0.054250564 0.035534777 0.02418614
-0.026171532 -0.06526314 0.06306323 0.046417996 -0.014812123 -0.03553532 -0.009224612 -0.0018060431
-0.012054809 -0.05823704 -0.037735835 0.050108183 0.051769454 0.019260406 0.006663212 -0.023840716
0.016924554 0.050085645 0.0011783931 -0.059199926 0.026127221 0.033693217 -0.015721304 -0.026642112
-0.036751743 -0.02666658 0.04246219 -0.039046235 -0.043208744 -0.02804254 -4.860865e-05 -0.01010528
0.06791482 0.014138563 -0.03098931 -0.023479896 0.06700838 0.015270361 -0.014980013 0.04233313
0.05822879 0.0041576265 -0.036589343 0.0035130365 -0.020848064 -0.056003824 0.0074836668 -0.05521352
-0.028297141 -0.024199964 0.0070560067 0.07000571 0.029511265 0.05593875 0.022855543 -0.030781854
0.03868623 0.03403969 0.028958598 0.04062505 0.051438123 -0.048490405 -0.060706303 -0.04309554
0.030787311 0.02625557 -0.040062327 -0.038980868 -0.029987091 0.043114625 0.05380869 -0.0027359347
-0.056960065 -0.07103187 -0.004281001 0.047075585 0.03831432 -0.058193456 -0.04405709 0.045557424
00000000: 5307 59bc 5147 90bd ce14 25bd 5f15 423d
00000010: ac51 d4bc dbac 8bbd 2e86 a1bd 5c40 84bc
00000020: 7b58 57bc 8db3 bbbc d04c 57bc 572e 00bd
00000030: 5e75 8c3c 4be3 2bbd fbea 78bd 8fff c63c
00000040: abae 073d 89e9 093d f681 79bd 9300 3f3c
00000050: cd40 22bd 5c58 3bbd bbee 293c ed32 273d
00000060: 6e44 5bbd a966 2fbd 186b 833d ee96 693d
00000070: 54e4 753d f1c1 38bd 1a24 0ebd 5901 2dbd
00000080: 04ea 313d 33db 72bc e74c 863d b23b 2fbd
00000090: 51f7 42bd b6e6 193b bb6b 813d 743c a2bc
000000a0: c0cc 893b 80c8 9cbc 543e d13c 02f5 1b3c
000000b0: 4bd3 a1bd d24e 0f3c 1d95 a1bc 5e91 82bd
000000c0: 3a2d 523d e2b2 72bd cb10 253d d49d 50bd
000000d0: bb92 83bc 9eda 61bd 248f 78bd c590 c03c
000000e0: 7d38 38bd 05d8 74bd b8b2 f03c 3ad3 c3bc
000000f0: 872d 72bc 38c8 16bd 0f49 92bc dd57 a33c
00000100: 466e c73a e5f5 14bc 2ae8 d8b9 55ef 983d
00000110: b4b9 05bc bebd 0c3c 52e6 4cbd 407e 74bd
00000120: 214f 09bd b7d7 87bd 499a 07bc 151f 7c3d
00000130: df6d 50bc e93c e23c 7609 4d3d a521 92bc
00000140: 0603 773d 5787 e3bc b3d7 9fbb a684 183d
00000150: 4f7e d73b 1ea2 703b 820d 3fbc c8ee 8d3d
00000160: 82ab e8bc 4e7b b2bd a647 18ba 7219 2cbc
00000170: b7d4 09bd 2c1a 9f3c 2197 5dbd 0a51 013d
00000180: e00b babc 2ae5 083d 89f3 9cba 3c9c 1b3d
00000190: 5f59 be3c 373e 30bb d814 653d 48c2 47bc
000001a0: 4473 303d a965 063c 25c2 17bd 3189 dcbb
000001b0: c85e f6bc 022c 223d d421 7f3d 445f 61bd
000001c0: d164 98bc 0120 763d ca90 9c3c d4d1 56bd
000001d0: 90bb 22bd d735 5ebd ea8c 113d 0322 c63c
000001e0: ae65 d6bc aea8 85bd 4b27 813d cc20 3e3d
000001f0: 8cae 72bc 7c8d 11bd d422 17bc c0b8 ecba
00000200: 8981 45bc f689 6ebd e490 1abd 3d3e 4d3d
00000210: 350c 543d 00c8 9d3c 1357 da3b 9b4d c3bc
00000220: 5da5 8a3c 9b26 4d3d 5074 9a3a 9f7b 72bd
00000230: c108 d63c e601 0a3d f7c9 80bc 8f40 dabc
00000240: ff88 16bd df73 dabc d5ec 2d3d f2ee 1fbd
00000250: a7fb 30bd 78b9 e5bc 24e1 4bb8 9e90 25bc
00000260: ed16 8b3d 6ea5 673c 4bdd fdbc e958 c0bc
00000270: b13b 893d 8930 7a3c ba6e 75bc 8165 2d3d
00000280: 5081 6e3d b33c 883b b5de 15bd f93a 663b
00000290: 8fc9 aabc 4464 65bd 8c39 f53b 9227 62bd
000002a0: 68cf e7bc 013f c6bc 1336 e73b 275f 8f3d
000002b0: 9cc1 f13c 0820 653d 8c3b bb3c 3a2a fcbc
000002c0: 7475 1e3d 346d 0b3d 953a ed3c 7466 263d
000002d0: c8b0 523d e09d 46bd 2ca7 78bd f384 30bd
000002e0: ac35 fc3c ec15 d73c 6518 24bd 67aa 1fbd
000002f0: 7da7 f5bc f698 303d 8066 5c3d 5e4d 33bb
00000300: f54e 69bd 2879 91bd a447 8cbb 54d2 403d
00000310: 7aef 1c3d 435c 6ebd 3575 34bd 6c9a 3a3d

conv3.weight f4 [1, 200, 5]
0.022371927 0.015284629 -0.023549665 0.019230817 -0.00340263 0.027500914 -0.017693339 0.013192641
-0.018247679 -0.021758566 -0.021246828 0.004168599 0.0025103716 0.007414222 -0.0275743 0.026548412
0.004214455 -0.028786367 0.027504249 -0.011712339 0.028151754 -0.027604574 -0.016561966 -0.048931144
0.043628626 0.022506248 -0.040917985 -0.0282296 0.007828795 -0.022971632 0.0020163662 -0.023334026
0.060797635 0.02183579 -0.022966694 0.02621539 -0.013521307 0.012384806 -0.023683205 -0.022713989
0.0057228864 -0.020130012 -0.020233342 0.005771148 -0.015985323 0.022497343 -0.11385346 -0.12667559
-0.094516404 -0.13304855 -0.004022932 0.039091136 0.029272765 -0.017169151 -0.019775499 0.013365829
-0.000626946 0.0045335945 0.0068651414 0.016747937 0.082183234 0.051013302 0.03492951 -0.050808247
-0.024403127 0.011636759 -0.005693465 0.01551887 -0.017047405 -0.016695105 -0.025035134 0.004489755
-0.0095268 0.0153197525 0.017616946 0.017234633 0.01110697 0.01747451 0.014975601 0.001491877
0.017051058 0.027567357 0.0019475983 -0.023927296 0.011509268 0.022457356 0.011095582 0.029518837
0.016529797 0.0012104674 0.01603103 0.03503761 -0.021666398 0.0002375339 -0.005902785 0.004134405
0.033691913 -0.006720768 -0.015406536 -0.008711117 -0.1688017 -0.12759665 -0.040459722 0.037612297
-0.036850117 0.026201025 0.014018925 -0.033242177 -0.007073648 0.002114719 -0.003537237 0.0023646874
0.01344345 0.02516667 -0.0347514 -0.027134016 -0.036694385 0.022264186 0.02656178 0.0060259798
-0.029355355 -0.01201952 0.021222716 0.011312009 0.012072473 -0.010899288 0.023875546 0.02925284
0.013927872 0.017047817 0.0051617553 0.029194012 -0.02514618 -0.01940219 0.011685578 -0.024608796
0.004098993 0.011517276 0.01518227 0.028128386 -0.020863008 0.064485945 0.07610334 -0.007916017
-0.031900004 0.0042597027 -0.04332332 -0.03327668 0.03958825 0.016671581 0.020658074 -0.008326658
-0.01689901 0.03160944 -0.0070986254 0.037593734 0.0033442779 0.042139255 -0.0070404382 0.028995506
-0.022856493 -0.025663083 -0.0029099756 0.032715198 -0.012823022 -0.009367004 -0.025858033 0.035042215
0.020658312 -0.007821092 0.024172472 0.021887688 0.006461361 -0.0073396624 -0.014767321 0.18231508
0.08468017 0.01776541 0.013570631 -0.007920559 -0.025150156 0.009546182 -0.015756069 -0.0020785322
-0.013398177 0.020011405 -0.018546194 -0.006866496 -0.0069078463 0.039093006 0.025991809 0.04316863
0.018111356 -0.015731113 -0.026513178 0.015312435 0.021469913 -0.01821776 -0.013976127 0.0013756978
-0.0030156125 -0.033838626 0.007402602 -0.0041462583 0.031261783 0.16922915 -0.19003674 -0.24067816
-0.14697255 -0.083557054 0.013750044 -0.018544253 -0.008545503 0.030555308 0.0074195196 -0.01684823
-0.020557478 0.004569459 0.03376644 -0.023936143 -0.0554516 -0.032411985 0.0052033984 -0.008217007
0.018081378 -0.029655758 -0.012084496 0.018072702 0.010965923 0.0117809 0.02682984 0.010461992
0.0054263053 -0.02749563 0.024856685 0.012826592 0.026768891 0.025059298 -0.0152756935 -0.00355842
0.014371429 0.045195468 -0.032783996 -0.051116683 0.027277235 0.031740405 -0.038879693 0.0050195954
0.019401062 -0.046045914 0.027091525 0.008667129 -0.009881577 -0.029894086 0.03281088 -0.047011975
00000000: 5545 b73c 616c 7a3c 3aeb c0bc f289 9d3c
00000010: a9fe 5ebb 9949 e13c 9ff1 90bc f225 583c
00000020: 287c 95bc 053f b2bc d40d aebc be98 883b
00000030: 0c85 243b 01f3 f23b 80e3 e1bc 0e7c d93c
00000040: 6919 8a3b 63d1 ebbc 9750 e13c 1ce5 3fbc
00000050: 829e e63c fd22 e2bc f6ac 87bc 066c 48bd
00000060: eeb3 323d 065f b83c 9e99 27bd c341 e7bc
00000070: 5944 003c 012f bcbc 0325 043b 0027 bfbc
00000080: f106 793d f8e0 b23c a624 bcbc a8c1 d63c
00000090: 7988 5dbc a4e9 4a3c 4803 c2bc b012 babc
000000a0: 0d87 bb3b b2e7 a4bc 65c0 a5bc e61b bd3b
000000b0: a7f3 82bc 594c b83c 012c e9bd 3fb7 01be
000000c0: d191 c1bd e13d 08be cdd2 83bb 071e 203d
000000d0: 70cd ef3c 52a6 8cbc 3a00 a2bc 5afc 5a3c
000000e0: a259 24ba 8c8e 943b fbf4 e03b f832 893c
000000f0: af4f a83d 53f3 503d 3f12 0f3d 4f1c 50bd
00000100: 11e9 c7bc 1ba8 3e3c 3f90 babb dc42 7e3c
00000110: 00a7 8bbc 2cc4 88bc 7b16 cdbc cb1e 933b
00000120: 4c16 1cbc b3ff 7a3c 6a51 903c a52f 8d3c
00000130: 02fa 353c b426 8f3c 395c 753c 168b c33a
00000140: a9ae 8b3c f0d4 e13c 8e46 ff3a 2d03 c4bc
00000150: 5e91 3c3c 7df8 b73c 3eca 353c 7dd1 f13c
00000160: 7f69 873c 8ca8 9e3a 8253 833c 9983 0f3d
00000170: bb7d b1bc 8512 7939 266c c1bb e779 873b
00000180: 8800 0a3d e339 dcbb b26b 7cbc 13b9 0ebc
00000190: 5ada 2cbe b2a8 02be 18b9 25bd 5a0f 1a3d
000001a0: 26f0 16bd 88a3 d63c a2af 653c f328 08bd
000001b0: 0fca e7bb 1997 0a3b fdd0 67bb dff8 1a3b
000001c0: eb41 5c3c 552a ce3c 7c57 0ebd 2848 debc
000001d0: da4c 16bd 6263 b63c 1798 d93c 9575 c53b
000001e0: a47a f0bc 85ed 44bc 43db ad3c 0156 393c
000001f0: 9fcb 453c ed92 32bc a696 c33c a7a3 ef3c
00000200: bb31 643c dda7 8b3c f123 a93b 4828 ef3c
00000210: 5dff cdbc 57f1 9ebc de74 3f3c 6398 c9bc
00000220: d850 863b f5b2 3c3c 0ebf 783c 806d e63c
00000230: e6e8 aabc 3511 843d 11dc 9b3d 2fb2 01bc
00000240: 94a9 02bd fa94 8b3b cb73 31bd 214d 08bd
00000250: 4a27 223d d792 883c 1f3b a93c 896c 08bc
00000260: cb6f 8abc e678 013d 969b e8bb e3fb 193d
00000270: ac2b 5b3b 369a 2c3d 7ab3 e6bb fc87 ed3c
00000280: 8a3d bbbc 633b d2bc 4ab5 3ebb 5f00 063d
00000290: a717 52bc 1078 19bc 3ad4 d3bc 6d88 0f3d
000002a0: 9f3b a93c 0a24 00bc 5905 c63c cf4d b33c
000002b0: d3b9 d33b 8d81 f0bb a2f2 71bc ceb0 3a3e
000002c0: cc6c ad3d c488 913c 5a57 5e3c 3bc5 01bc
000002d0: b307 cebc 9767 1c3c df12 81bc fc37 08bb
000002e0: 0784 5bbc f5ee a33c 30ee 97bc 5800 e1bb
000002f0: 375b e2bb fd1f 203d c6ec d43c 97d1 303d
00000300: 445e 943c 89de 80bc 2a32 d9bc 02e1 7a3c
00000310: ace1 af3c 693d 95bc 20fc 64bc c250 b43a
00000320: 95a1 45bb 5f9a 0abd 8791 f23b 56dd 87bb
00000330: 5b0c 003d 684a 2d3e fe98 42be 5674 76be
00000340: f97f 16be f61f abbd dd47 613c 1eea 97bc
00000350: 7002 0cbc 204f fa3c 711f f33b 4d05 8abc
00000360: 2868 a8bc 66bb 953b ae4e 0a3d bb15 c4bc
00000370: 3821 63bd 6ec2 04bd 4581 aa3b a0a0 06bc
00000380: 661f 943c a2f0 f2bc 0dfe 45bc 340d 943c
00000390: 6aaa 333c ad04 413c 41ca db3c c668 2b3c
000003a0: 26cf b13b 843e e1bc 3fa0 cb3c a026 523c
000003b0: 6f4a db3c 2849 cd3c e746 7abc 6234 69bb
000003c0: 2476 6b3c e21e 393d 8348 06bd ba5f 51bd
000003d0: 8274 df3c 3a02 023d 5040 1fbd 6b7b a43b
000003e0: faee 9e3c a49a 3cbd 0cef dd3c 9300 0e3c
000003f0: 57e6 21bc 71e4 f4bc b464 063d a18f 40bd

fc1.weight f4 [34, 34]
-0.09159053 -0.055344924 0.03179142 -0.14718524 0.04917377 -0.16589041 -0.09564283 -0.040225063
-0.15180673 0.08020027 0.07437988 -0.1510972 -0.023870286 0.11722884 0.10065996 0.07976637
-0.08566965 -0.054870874 0.13027418 0.009576755 0.0012422005 0.16261983 -0.0018476195 -0.10449458
-0.11316956 -0.1197146 0.14875625 0.18198527 -0.033125907 -0.05295854 -0.16228317 -0.066152215
-0.016286097 -0.025508316 0.043766465 -0.11525143 -0.14941595 0.016439773 0.091007896 0.06629739
-0.023671651 -0.10967825 -0.08646355 0.15056057 -0.1087682 -0.15347557 -0.07611759 0.007608578
-0.09804117 0.14667876 -0.04208453 0.14149216 -0.039703332 0.11066029 0.073170334 -0.10722938
-0.01768082 -0.11060522 0.11620176 -0.013219992 -0.030967541 -0.10186412 -0.16903487 -0.14653672
-0.15233749 0.052427493 0.05239456 0.1511889 0.008591951 0.10129171 -0.09431164 -0.13929686
-0.03741285 0.05055049 0.15470323 0.03343661 -0.14414173 -0.06990637 0.13726582 -0.12096453
-0.016461587 0.078180164 -0.12848857 -0.067534655 -0.030351147 0.1222694 -0.10955732 -0.10969634
0.15430792 0.16794296 -0.099371254 0.13949981 0.058976885 -0.15468544 -0.15652393 0.05433772
0.12819223 0.028461447 -0.06898378 0.04085367 0.11009732 -0.06759551 -0.0049448526 -0.14749546
0.092501685 0.10571989 0.015572726 0.06968771 -0.1115601 0.046582937 0.013108635 -0.05305021
0.008237133 0.089641966 -0.09917429 0.068391375 -0.17995402 -0.07780465 0.11935925 -0.003019153
0.017567832 0.11166771 -0.09379246 -0.14839928 0.049324587 0.029504737 -0.031903107 -0.0067338413
0.044736996 -0.16894719 0.14690128 0.15099216 0.0651181 -0.09070352 0.11867276 0.1542088
0.035228107 -0.1619251 -0.078597896 -0.06386531 0.05258577 0.08777884 -0.18492569 0.11384737
0.1179965 0.1301762 0.07702483 0.16660345 -0.028655946 0.030942397 0.09491839 -0.13344815
0.059358623 -0.03666399 -0.11443602 0.13139577 0.11029007 0.077877305 0.11052386 0.063294046
-0.0013858709 -0.11380285 0.010632823 -0.10558228 0.0238897 0.097834826 -0.09769506 -0.16273105
0.04340684 -0.107724264 0.020819457 -0.037579082 -0.04782767 -0.10264769 0.13381484 -0.11274096
0.13681026 -0.04166222 -0.04503321 -0.0850261 -0.11676287 -0.16463235 0.12303214 -0.14274389
0.1329505 -0.053963244 -0.15587658 -0.054390427 -0.15105769 -0.05091998 0.094008125 0.018002959
0.144533 -0.15243119 0.12447873 0.12851916 -0.12387203 0.015210912 -0.009171013 0.033632323
0.13006538 -0.042070307 -0.0820264 0.058838192 -0.12306914 -0.12985623 -0.13869737 -0.06157427
-0.04516025 -0.07648587 -0.051731408 0.16427553 0.06857632 0.13516836 0.039218426 0.11234631
-0.057121605 -0.09480238 0.06519502 0.09831871 -0.15407598 -0.06726333 0.15338121 0.0008850178
0.03269983 -0.17703792 -0.0092398515 -0.030241307 0.023330629 0.14694852 -0.0010116918 0.022269683
-0.0871822 0.106449254 0.073136084 0.0056508165 0.09880285 -0.248557 0.15387619 0.15092151
-0.16064796 0.0890364 0.08355215 -0.088994995 -0.015967082 0.044534776 0.047995493 0.16764933
-0.14790021 0.04210435 -0.004370464 0.07427078 0.056845184 -0.09333383 -0.10565587 -0.15418652
00000000: d193 bbbd 5cb1 62bd b837 023d bab7 16be
00000010: 6f6a 493d 2ddf 29be 63e0 c3bd 09c3 24bd
00000020: 3973 1bbe 0a40 a43d 7b54 983d 39b9 1abe
00000030: 9e8b c3bc ad15 f03d cf26 ce3d 8d5c a33d
00000040: 9273 afbd 48c0 60bd 9866 053e d2e7 1c3c
00000050: 55d1 a23a d085 263e d32b f2ba 4101 d6bd
00000060: 71c5 e7bd ee2c f5bd 8f53 183e 595a 3a3e
00000070: 08af 07bd 0eeb 58bd 8f2d 26be d07a 87bd
00000080: 6c6a 85bc d1f6 d0bc 7744 333d f108 ecbd
00000090: 7f00 19be b4ac 863c 5962 ba3d edc6 873d
000000a0: 0deb c1bc fe9e e0bd cd13 b1bd 8d2c 1a3e
000000b0: ddc1 debd b328 1dbe 8ae3 9bbd 6151 f93b
000000c0: cfc9 c8bd f532 163e d460 2cbd 52e3 103e
000000d0: f69f 22bd dda1 e23d 54da 953d 149b dbbd
000000e0: 5ed7 90bc fd84 e2bd 30fb ed3d aa98 58bc
000000f0: a4af fdbc 239e d0bd 7a17 2dbe b90d 16be
00000100: 5cfe 1bbe 36be 563d ae9b 563d 43d1 1a3e
00000110: 41c5 0c3c 0772 cf3d 7626 c1bd d6a3 0ebe
00000120: 373e 19bd 080e 4f3d 866a 1e3e d4f4 083d
00000130: e499 13be 122b 8fbd 698f 0c3e 40bc f7bd
00000140: 73da 86bc ec1c a03d 8292 03be 9c4f 8abd
00000150: f8a2 f8bc 6168 fa3d 975f e0bd 7aa8 e0bd
00000160: e502 1e3e 3df9 2b3e 2883 cbbd 0ad9 0e3e
00000170: bf91 713d dc65 1ebe cf47 20be 3b91 5e3d
00000180: d344 033e fb27 e93c 5e47 8dbd 2e56 273d
00000190: b47a e13d 846f 8abd 6e08 a2bb 0d09 17be
000001a0: 8671 bd3d ab83 d83d bf24 7f3c 6eb8 8e3d
000001b0: 9f79 e4bd c0cd 3e3d 9ac5 563c 2d4b 59bd
000001c0: 0af5 063c 3596 b73d e41b cbbd c710 8c3d
000001d0: de45 38be 0b58 9fbd 9f72 f43d fbdc 45bb
000001e0: 6aea 8f3c 0ab2 e43d 4316 c0bd fbf5 17be
000001f0: 9408 4a3d ebb3 f13c d5ac 02bd 8ea7 dcbb
00000200: 243e 373d 7e00 2dbe 4a6d 163e b09d 1a3e
00000210: a35c 853d c4c2 b9bd b40a f33d e9e8 1d3e
00000220: 594b 103d b2cf 25be eff7 a0bd d1cb 82bd
00000230: 2d64 573d 64c5 b33d 295d 3dbe cf28 e93d
00000240: 26a8 f13d e94c 053e 32bf 9d3d 189a 2a3e
00000250: e0bf eabc e97a fd3c 9364 c23d a2a6 08be
00000260: 0722 733d fb2c 16bd 6f5d eabd 9d8c 063e
00000270: c3df e13d 237e 9f3d 555a e23d 4fa0 813d
00000280: 1ca6 b5ba 7811 e9bd 4b35 2e3c 863b d8bd
00000290: 55b4 c33c a05d c83d 5914 c8bd f8a2 26be
000002a0: 5fcb 313d 8a9e dcbd 918d aa3c 86ec 19bd
000002b0: f2e6 43bd f438 d2bd c206 093e bce4 e6bd
000002c0: fd17 0c3e 01a6 2abd be74 38bd 2a22 aebd
000002d0: 5f21 efbd 6295 28be 46f8 fb3d 742b 12be
000002e0: 2d24 083e 9008 5dbd 1c9e 1fbe 7fc8 5ebd
000002f0: deae 1abe 7891 50bd 5587 c03d f17a 933c
00000300: 7500 143e ec16 1cbe b4ee fe3d 879a 033e
00000310: 9eb0 fdbd 3037 793c 0442 16bc 0cc2 093d
00000320: dc2f 053e ea51 2cbd 75fd a7bd 5100 713d
00000330: ac0b fcbd 08f9 04be af06 0ebe 4d35 7cbd
00000340: f4f9 38bd a0a4 9cbd 50e4 53bd d837 283e
00000350: be71 8c3d 9369 0a3e 80a3 203d d215 e63d
00000360: 58f8 69bd c027 c2bd f784 853d 525b c93d
00000370: 18c6 1dbe 5bc1 89bd f70f 1d3e 8a00 683a
00000380: 42f0 053d 6e49 35be bf62 17bc 9ebc f7bc
00000390: e01f bf3c ac79 163e be9a 84ba e96e b63c
000003a0: 958c b2bd 1102 da3d 5fc8 953d 7c2a b93b
000003b0: 2659 ca3d ba85 7ebe b891 1d3e 2b8b 1a3e
000003c0: e680 24be b758 b63d 641d ab3d 0243 b6bd
000003d0: 66cd 82bc 196a 363d ec96 443d 44ac 2b3e
000003e0: 2773 17be 9c75 2c3d 1c36 8fbb 471b 983d
000003f0: 7fd6 683d cf25 bfbd 1b62 d8bd 12e3 1dbe

fc1.bias f4 [34]
0.1677206 -0.0031198647 -0.07294152 -0.14097624 -0.04231605 -0.06324607 0.13472047 -0.1463281
0.07653796 -0.16960885 0.10334962 -0.018519169 0.15771677 0.08582695 -0.07282439 -0.16679925
0.011997643 -0.057002895 -0.05839729 -0.056479786 0.07965171 0.086026266 -0.058378387 -0.076373674
-0.08418992 0.04594378 -0.07501726 0.04510529 -0.15873766 -0.0015075034 0.12815563 0.16355263
-0.13971153 -0.073500216
00000000: f3be 2b3e a576 4cbb 5d62 95bd 135c 10be
00000010: 9853 2dbd 2887 81bd 2af4 093e 09d7 15be
00000020: efbf 9c3d f1ad 2dbe f7a8 d33d 83b5 97bc
00000030: 8180 213e 0ac6 af3d f424 95bd 6ccd 2abe
00000040: c391 443c de7b 69bd ff31 6fbd 5957 67bd
00000050: 7020 a33d 8a2e b03d 2d1e 6fbd cd69 9cbd
00000060: c46b acbd 8c2f 3c3d a6a2 99bd 53c0 383d
00000070: 208c 22be 6c97 c5ba 3b3b 033e 577a 273e
00000080: 8a10 0fbe 4887 96bd

fc2.weight f4 [1, 34]
-0.054875344 0.047979515 0.049340315 -0.07250428 0.018287815 0.08780089 0.11068624 0.100715056
-0.15562181 0.15615818 -0.11472264 0.229169 0.061457906 0.050927836 0.042515296 0.08760513
-0.1322675 0.07906639 0.07140221 -0.110106066 -0.07576444 -0.013172551 0.113641225 -0.13247848
-0.08904369 0.07960645 0.06539079 0.15934932 0.0070695514 -0.22825786 0.08063599 -0.038305975
0.09965265 0.16762778
00000000: f8c4 60bd 2b86 443d 1219 4a3d 207d 94bd
00000010: 54d0 953c f4d0 b33d 78af e23d b243 ce3d
00000020: 535b 1fbe eee7 1f3e b4f3 eabd 47ab 6a3e
00000030: 49bb 7b3d b599 503d 8524 2e3d 526a b33d
00000040: 2271 07be 8fed a13d 523b 923d 4a7f e1bd
00000050: 632a 9bbd afd1 57bc bbbc e83d 70a8 07be
00000060: 8a5c b6bd b508 a33d 9beb 853d 782c 233e
00000070: b2a7 e73b 6ebc 69be 7b24 a53d bae6 1cbd
00000080: b016 cc3d 9ea6 2b3e
